artifacts/hgae_temporal.pth (torch, 144456 bytes, 7 tensors)

cnn.0.weight f4 [64, 50, 3]
0	0x3dafe41c	0.0858843
1	0x3e6d5662	0.23177484
2	0xbe3c4575	-0.18385871
3	0xbce86d11	-0.02837232
4	0xbdfc96e5	-0.12333468
5	0x3dc24cea	0.094873264
6	0xbcf34064	-0.02969379
7	0x3d09121e	0.033464544
8	0x3d920682	0.071301475
9	0xbd98a7fa	-0.07453914
10	0x3d0440b4	0.03228827
11	0x3d40d404	0.047077194
12	0xbde5c036	-0.11218302
13	0xbd9c1792	-0.07621683
14	0x3eb7a17f	0.358654
15	0x3c2fefe5	0.010738348
16	0x3a5dea0c	0.00084653567
17	0x38bd0160	9.0124784e-05
18	0xbd17d35b	-0.0370668
19	0xbe9cef18	-0.30651164
20	0xbee57770	-0.44817686
21	0xbcad02d3	-0.02111951
22	0xbef122d6	-0.4709689
23	0xbfc48966	-1.5354431
24	0x3c82f2ae	0.01598486
25	0xbef0214c	-0.46900403
26	0xbf51203d	-0.81689817
27	0x3d055334	0.03255005
28	0xbdcc767d	-0.09983537
29	0x3e9f3044	0.3109151
30	0xbdb52e58	-0.0884673
31	0x3df63231	0.12021292
32	0x3a8ce915	0.0010750616
33	0xbe2214ff	-0.15828322
34	0xbe53a080	-0.20666695
35	0xbd999d68	-0.07500726
36	0x3ca00dff	0.019537924
37	0x3da28cf5	0.07937042
38	0xbd6d0884	-0.05786945
39	0x3cc1fe2b	0.023680767
40	0x3e05e1d7	0.13074432
41	0x3bace38d	0.0052761496
42	0xbc3ddfcf	-0.011589005
43	0x3e8b113b	0.27161583
44	0x3df59beb	0.119926296
45	0x3bee5956	0.0072738333
46	0xbe28a57c	-0.16469377
47	0x3c374cf9	0.011187785
48	0x3cb67ff1	0.022277804
49	0xbde9a679	-0.11408705
50	0xbe22331d	-0.1583981
51	0xbc06a1a0	-0.008217245
52	0xbde49d7e	-0.11162852
53	0x3d9d995d	0.07695267
54	0x3c88ea78	0.016713366
55	0xbdc16bb1	-0.09444369
56	0xbd19e928	-0.03757587
57	0x3d8516f9	0.06498522
58	0xbc8806ca	-0.0166048
59	0x3c564c19	0.0130796665
60	0x3d41ddc0	0.047330618
61	0xbe59b247	-0.21259414
62	0x3d90b2f0	0.070653796
63	0xbd9882b1	-0.074468024
64	0xbe766256	-0.2406095
65	0xbe072192	-0.131964
66	0x3d02970e	0.03188234
67	0xbe6cd6fe	-0.23128888
68	0x3ddaf23c	0.10690734
69	0xbc89115d	-0.016731912
70	0xbe42b719	-0.19015159
71	0x3d7ec22a	0.062196888
72	0x3d76b141	0.060227636
73	0xbdf3ebd8	-0.11910218
74	0xbd617930	-0.055047214
75	0xbc17fef7	-0.009277097
76	0x3d414089	0.047180686
77	0x3e478fe1	0.19488479
78	0xbc40c54f	-0.011765792
79	0x3da22950	0.07918036
80	0xbdff5302	-0.12467004
81	0xbd2323c8	-0.039829046
82	0x3db764b1	0.08954752
83	0xbe7848a4	-0.2424646
84	0xbcc7d53f	-0.024393676
85	0xbd537aff	-0.05163097
86	0xbe5c492a	-0.21512285
87	0xbc1bc957	-0.009508452
88	0xbe2a5cb1	-0.16636921
89	0xbd72be6f	-0.059263643
90	0x3e11aef7	0.142269
91	0x3e7945ba	0.24343005
92	0xbe36b855	-0.17843755
93	0x3e33b560	0.17549658
94	0x3dfa2428	0.122139275
95	0xbdd9409a	-0.10608025
96	0x3c1c0282	0.009522082
97	0x3d5656c0	0.052328825
98	0xbb9a56bd	-0.004710047
99	0x3b885b04	0.0041612405
100	0xbd0394d4	-0.032124355
101	0xbe51b685	-0.20479782
102	0x3d39e9d4	0.04538901
103	0xbed95d53	-0.42454013
104	0xbfd5fcc2	-1.671776
105	0xbc236a7d	-0.009974119
106	0xbd9d8fd6	-0.0769345
107	0xbdf70d77	-0.12063115
108	0xbd96a914	-0.07356468
109	0xbeaba028	-0.33520627
110	0xbf0a9378	-0.5413127
111	0x3dae12d3	0.08499684
112	0x3cc9b76e	0.024623599
113	0xbcfc74f8	-0.030817494
114	0xb835614a	-4.324437e-05
115	0x3bec7948	0.0072166063
116	0x3b69a145	0.0035649103
117	0x00063a85	5.72006e-40
118	0x80066380	-5.86707e-40
119	0x8005a2fa	-5.17642e-40
120	0xbd0e539e	-0.034747712
121	0xbf075cc6	-0.52875936
122	0x3e698324	0.22803932
123	0x3cb4b35c	0.022058181
124	0xbe021586	-0.12703523
125	0x3e980fa6	0.2969944
126	0x3c5b2aeb	0.013376932
127	0xbf7ee456	-0.99567163
128	0xbf6c2a2d	-0.92251855
129	0x3d8fda54	0.07024065
130	0x3f03e7cc	0.5152557
131	0x3cd34d9b	0.025793841
132	0x3b72cd59	0.0037048666
133	0xbf019adb	-0.50626916
134	0xbf2b587d	-0.669319
135	0x3c856a2b	0.016285976
136	0xbec11876	-0.37713975
137	0xbf4f56d0	-0.8099184
138	0x3d34732a	0.04405514
139	0x3da84d4c	0.08217868
140	0xbd6c882c	-0.05774705
141	0x3c690e65	0.014224623
142	0xbd72db59	-0.059291217
143	0x3eab6a1c	0.33479393
144	0x3c318463	0.010834786
145	0x3a5dea0c	0.00084653567
146	0x38bd0160	9.0124784e-05
147	0x3cc97550	0.024592072
148	0x3e28355c	0.16426605
149	0x3e655d98	0.22398984
150	0xbc938bba	-0.018010963
151	0x3e0702bb	0.13184635
152	0xbf08ac15	-0.53387576
153	0xbc979f52	-0.018508587
154	0xbc4af80d	-0.0123882415
155	0x3c5d2973	0.013498652
156	0x3c12e52f	0.008965774
157	0xbc262e19	-0.0101428265
158	0x3b2a290a	0.0025964403
159	0xbc7e0f3c	-0.015506562
160	0xbd5561c2	-0.052095182
161	0xbac90904	-0.001533777
162	0x3cd8a350	0.026445061
163	0xc02468d1	-2.5688975
164	0xbe8d3d93	-0.2758604
165	0xbc97b3cb	-0.01851835
166	0xbb6ff3cd	-0.0036613822
167	0x36aa1c8a	5.069717e-06
168	0x3d98e31e	0.07465194
169	0xbe137846	-0.1440135
170	0x3d669490	0.056294024
171	0x3d248aa1	0.04017127
172	0x3d959ce2	0.07305314
173	0x3e5efec2	0.2177687
174	0x3c99623d	0.018723601
175	0xbde9102b	-0.11380037
176	0x3dbfe369	0.09369547
177	0xbd633c39	-0.055477355
178	0xbf86be03	-1.0526737
179	0xbdd937cd	-0.10606346
180	0x3d8cdad2	0.06877674
181	0xbe915ef3	-0.28392753
182	0xba64bca0	-0.0008725617
183	0xbc8e7905	-0.017391691
184	0xbc8a006c	-0.016845904
185	0xbc94ec60	-0.018179119
186	0x3c1eed36	0.00970011
187	0xbee7dd52	-0.45286041
188	0xbc03f72d	-0.008054537
189	0x3cec67a6	0.028858017
190	0xbefc958c	-0.49332845
191	0xbb1e77e6	-0.0024180352
192	0x3c3298b0	0.010900661
193	0x3e15a7bc	0.14614767
194	0x3ee1c938	0.4409883
195	0x3c60aab2	0.013712572
196	0x3d705499	0.05867443
197	0x3f7389f5	0.9513238
198	0xbc4a490b	-0.012346516
199	0x3dd8240b	0.1055375
200	0x3dd4b668	0.10386354
201	0xbc95274e	-0.018207218
202	0xbd8471a2	-0.06466986
203	0x3e63db9f	0.22251748
204	0xbc4c0a60	-0.0124536455
205	0xbde6f2ca	-0.11276777
206	0x3df61d89	0.12017352
207	0x3e0f9703	0.1402245
208	0xbe06bb10	-0.13157296
209	0x3da888f0	0.08229244
210	0x3ce4204e	0.027847435
211	0x3d851b71	0.06499375
212	0x3d21dc1b	0.03951655
213	0x3b004ea3	0.001957812
214	0x3dcb0772	0.099135295
215	0x3da004a4	0.07813385
216	0x3caede52	0.021346245
217	0xbbcbc85a	-0.006218952
218	0x3e3092ac	0.17243451
219	0x3cf14c90	0.029455453
220	0x3c0d8426	0.008637464
221	0x3c7e763e	0.015531121
222	0x3c3283df	0.010895698
223	0xbddd2dbb	-0.10799738
224	0x3d8402f2	0.06445874
225	0x38ff0d51	0.00012161828
226	0xbd232e1a	-0.039838888
227	0x3d8d350b	0.06894883
228	0x3ce201d4	0.027588762
229	0x3d982086	0.07428078
230	0x3cb8feac	0.022582375
231	0xbc370d0c	-0.011172544
232	0xbd1a1373	-0.037616204
233	0xbbe564fe	-0.0070005646
234	0xbc7b09f9	-0.015322202
235	0x3d8c2df9	0.06844706
236	0x3de85fdb	0.11346408
237	0x3c874cb8	0.016516075
238	0xbf3e1965	-0.742575
239	0x3df97857	0.12181156
240	0xbdc1aaa0	-0.09456372
241	0x389336f8	7.019745e-05
242	0xbf25b06d	-0.6472233
243	0xbd8f27fd	-0.06990049
244	0x3b81723e	0.0039503863
245	0xbf3be1ca	-0.733914
246	0x3c1a8fd0	0.009433702
247	0x3ccd2a43	0.025044566
248	0x3eea85c6	0.45805186
249	0x3bf9e4cb	0.007626151
250	0x3d21b7ad	0.039481808
251	0x3e075023	0.13214163
252	0xbd376b71	-0.0447802
253	0x3e048032	0.12939528
254	0x3e3e0d05	0.18559654
255	0xbcba5d15	-0.022749463

cnn.0.bias f4 [64]
0	0x3e7d4745	0.24734218
1	0x3b620dca	0.0034493082
2	0x3dca2ed6	0.098722145
3	0x3dafe270	0.085881114
4	0xbe9f954f	-0.311686
5	0x3d1c6614	0.038183287
6	0xbd197ed5	-0.037474472
7	0x3e7966d1	0.24355628
8	0xbe71559d	-0.23567815
9	0xbd80cf55	-0.062895454
10	0xbe1b227a	-0.1514987
11	0xbd1ebecf	-0.038756188
12	0xbea33c4f	-0.3188195
13	0xbdb58745	-0.08863691
14	0xbde4cd28	-0.11171943
15	0x3dbd8af2	0.09255017
16	0xbd4ce972	-0.05002732
17	0x3d5f6f68	0.054549605
18	0x3d1798e8	0.037011057
19	0xbd5b5b52	-0.053553887
20	0xbe323fa3	-0.17407088
21	0x3d912a2b	0.07088121
22	0x3e52c3c7	0.20582496
23	0xbe1e5f45	-0.1546603
24	0xbebe8d28	-0.3721707
25	0x3b966fef	0.0045909802
26	0xbd14813a	-0.036256053
27	0xbe70d3d6	-0.23518309
28	0xbdf30c6b	-0.11867603
29	0xbdaee1de	-0.085391745
30	0x3e003a79	0.12522306
31	0xbdd5ca1c	-0.1043894
32	0x3e4851a2	0.1956239
33	0x3e27c988	0.16385472
34	0xbd8f6741	-0.07002116
35	0xbdaa5bca	-0.083182886
36	0x3e60ec64	0.21965176
37	0xbd25e670	-0.040502965
38	0xbe58ce69	-0.21172489
39	0xbc10b49a	-0.008832121
40	0xbe52fd08	-0.20604336
41	0xbecd99f6	-0.40156525
42	0xbe8b60c7	-0.27222273
43	0x3d0a4236	0.03375455
44	0xbd723614	-0.059133604
45	0xb9bb2c90	-0.0003570062
46	0x390d4f45	0.00013476338
47	0x3cb66855	0.022266546
48	0xbd6cb525	-0.05778994
49	0xbdba2952	-0.090899125
50	0x3c12e2df	0.008965223
51	0xbe85c573	-0.26127204
52	0xbe29faa8	-0.16599524
53	0x3d8926c8	0.0669685
54	0x3debf07f	0.1152048
55	0xbe164d44	-0.14677912
56	0x3cc2c63e	0.02377617
57	0xbe1710df	-0.1475253
58	0x3e3904da	0.18068257
59	0xbd6add6d	-0.057340074
60	0x3d4cdd66	0.05001583
61	0xbea5e6c8	-0.32402635
62	0x3d290719	0.041266534
63	0xbe8105c5	-0.25199714

cnn.3.weight f4 [128, 64, 3]
0	0x3ea20c3b	0.31649956
1	0xbddb4d86	-0.10708146
2	0xbd14e02f	-0.03634661
3	0x3cf4b24c	0.029870175
4	0x3df87305	0.12131313
5	0xbd90eee2	-0.07076813
6	0xbd85a4f4	-0.06525603
7	0xbd762b15	-0.06009968
8	0xbd229f00	-0.039702415
9	0xbe111944	-0.14169794
10	0x3dbb25cc	0.091380686
11	0x3c74960e	0.014928354
12	0xbe1ea120	-0.15491152
13	0x3e21efe2	0.15814164
14	0x398f4748	0.00027328194
15	0x3d74c89f	0.05976164
16	0xbe3e8f36	-0.18609318
17	0xbe5dbf0d	-0.21654911
18	0x3e370509	0.17873015
19	0x3d81ed88	0.063441336
20	0xbd9d6bfa	-0.076866105
21	0xbded8d86	-0.11599259
22	0xbebdb17a	-0.37049466
23	0x3ba5e3f3	0.005062574
24	0x3cb08c34	0.021551229
25	0xbdfb7d95	-0.12279812
26	0xbc90e282	-0.017686132
27	0x3c6b145d	0.014348117
28	0xbea5c86b	-0.3237947
29	0xbda1a65e	-0.0789306
30	0xbe36f25e	-0.17865893
31	0x3d736b70	0.059428632
32	0xbdbe858c	-0.09302816
33	0xbe01e5e3	-0.12685351
34	0xbd3c003f	-0.045898672
35	0xbd1c94c2	-0.038227804
36	0x3d628b26	0.055308484
37	0x3dc1e0eb	0.09466728
38	0x3abb3a5b	0.0014284359
39	0xbe16b951	-0.1471913
40	0xbe097934	-0.13425142
41	0x3c101245	0.008793418
42	0x3d703553	0.058644604
43	0xbcea8c1a	-0.028631259
44	0xbe0ebd13	-0.13939314
45	0x3e1c79b7	0.15280806
46	0x3e27c0a1	0.16382076
47	0x38cdf68f	9.821087e-05
48	0xbd3ce6b5	-0.046118457
49	0x3d527ca8	0.051388413
50	0xbd9f4fee	-0.07778917
51	0x3d186ec2	0.037215002
52	0xbe6c9668	-0.2310425
53	0xbca52a68	-0.020161822
54	0x3c00efef	0.007869705
55	0xbe02d6e5	-0.12777288
56	0xbe06b146	-0.13153562
57	0xbe25a38c	-0.1617567
58	0x3e064e4c	0.13115805
59	0xbdc30059	-0.09521551
60	0x3dc8c33c	0.09802863
61	0xbc3ae5b8	-0.011407308
62	0xbdc12881	-0.09431554
63	0xbe1fe4a7	-0.15614568
64	0xbdb1e0d7	-0.08685463
65	0xbc904648	-0.017611638
66	0x3d2bba6f	0.041925844
67	0xbdd10c9c	-0.10207483
68	0xbc174764	-0.009233329
69	0x3c83266c	0.016009532
70	0xbd33bf1b	-0.043883424
71	0xbdc095d8	-0.094035804
72	0xbdac0df0	-0.08401096
73	0x3d67908e	0.056534342
74	0xbbb096cd	-0.0053890706
75	0x3ca4bb0a	0.020108718
76	0x3da158da	0.07878275
77	0xbd34faad	-0.044184376
78	0xbdacc1b0	-0.084353805
79	0xbe00506c	-0.12530679
80	0xbc8f318a	-0.017479677
81	0x3d798b2d	0.060923744
82	0xbd023c9a	-0.031796075
83	0xbcc3b689	-0.02389075
84	0xbd7fe4f8	-0.06247422
85	0x3d8a4fa1	0.06753469
86	0xbc3bc08f	-0.011459484
87	0xbd120749	-0.03565148
88	0xbec48256	-0.38380688
89	0x3cd50b08	0.026006237
90	0x3d83df5d	0.064390875
91	0x3ea5f712	0.32415062
92	0x3c99115e	0.01868504
93	0xbdd7fc4d	-0.105461694
94	0x3ce6cc0c	0.028173469
95	0xbbec8ec3	-0.007219167
96	0xbcde30be	-0.027122851
97	0xbda2ec96	-0.079552814
98	0xbcba7b56	-0.02276389
99	0xbe303a7c	-0.1720981
100	0xbe75d2df	-0.24006222
101	0xbcfb878a	-0.030704278
102	0x3d155ab1	0.036463443
103	0x3bf83de7	0.0075757387
104	0xbd3b05ee	-0.045659952
105	0xbe507b77	-0.20359598
106	0xbdebac18	-0.11507434
107	0x3c919f96	0.017776292
108	0xbe67381d	-0.2258
109	0xbe3a0758	-0.18166864
110	0x39ee133f	0.00045409237
111	0x3d584c50	0.052807152
112	0x3d5e4d4d	0.05427294
113	0xbd173e1c	-0.036924466
114	0xbd2dd65f	-0.04244077
115	0xbcdc21cc	-0.026871584
116	0xbe3d940d	-0.18513508
117	0xbe68e0f1	-0.22742058
118	0x3e264b7e	0.16239735
119	0xbd3807ff	-0.0449295
120	0x3e243e9e	0.16039512
121	0x3c9700ef	0.018433062
122	0xbc87d3df	-0.01658052
123	0x3e4b57b0	0.19857669
124	0x3eb3584e	0.3502831
125	0xbb0fd06b	-0.0021944295
126	0x3dfec5a4	0.12440041
127	0xbd1ec75f	-0.038764354
128	0xbc735ce7	-0.014853693
129	0xbe8117b9	-0.2521341
130	0xbe520b4d	-0.20512123
131	0xbd87504e	-0.06607114
132	0xbe3cac6c	-0.18425149
133	0xbe42f33a	-0.19038096
134	0x3c81ae3f	0.015830157
135	0x3d2fbc9d	0.042904485
136	0xbe23fba7	-0.16013967
137	0xbdd3f7e4	-0.10350016
138	0xbe2073c7	-0.15669166
139	0xbebf7bdc	-0.37399185
140	0xbda0a9f9	-0.0784492
141	0xbd81f9cd	-0.06346474
142	0xbe645163	-0.22296672
143	0xbd599add	-0.053126205
144	0x3c462eb3	0.012096095
145	0xbdbad46b	-0.09122547
146	0xbdc8cb89	-0.09804446
147	0x3d5bd23b	0.05366729
148	0xbea045f5	-0.31303373
149	0xbce111d7	-0.027474327
150	0x3cb57396	0.022149842
151	0x3b65cc7e	0.0035064514
152	0xb973f8e7	-0.00023267009
153	0xbd2f5800	-0.042808533
154	0xbc2dffa4	-0.0106200315
155	0xbcb6706e	-0.022270408
156	0xbd1b8584	-0.037969127
157	0x3dfad866	0.12248306
158	0xbcfd3eb6	-0.030913692
159	0x3d0f4018	0.034973234
160	0xbd49b056	-0.049240433
161	0xbe50c176	-0.203863
162	0xbdbe022c	-0.09277758
163	0xbe9520cb	-0.29126582
164	0xbe0027a4	-0.12515122
165	0xbe61fdd9	-0.22069491
166	0xbd1a39f8	-0.03765294
167	0xbccef0a3	-0.025261229
168	0xbe52b644	-0.20577341
169	0xbe848ed1	-0.2589021
170	0xbe17d1ad	-0.14826079
171	0xbde6b474	-0.112648875
172	0x3e01590c	0.12631625
173	0xbd123637	-0.035696235
174	0xbce6bab2	-0.028165195
175	0xbd94e099	-0.07269401
176	0xbcd3311f	-0.025780259
177	0xbea31aab	-0.31856284
178	0xbdcd5d11	-0.10027517
179	0xbd9a1999	-0.075244136
180	0xbe39eb10	-0.18156075
181	0xbe957130	-0.29187918
182	0xbc972b26	-0.018453192
183	0xbd331995	-0.04372557
184	0x3e85ea50	0.2615533
185	0xbcaa5a81	-0.020795109
186	0x3dc12a68	0.094319165
187	0x3ddf5bfd	0.10906217
188	0xbdbd29e4	-0.09236506
189	0x3e3440de	0.1760287
190	0xbdcba9c4	-0.099444896
191	0xbd55236f	-0.052035745
192	0x3c551af5	0.013006915
193	0xbd962f74	-0.0733327
194	0x3dabb41e	0.08383964
195	0xbda65fdc	-0.081237525
196	0xbd80dbfa	-0.06291957
197	0x3e9c3f6a	0.3051713
198	0x3db76fa4	0.08956841
199	0x3dbd5110	0.09243977
200	0x3e229a5a	0.15879193
201	0xbe848367	-0.25881502
202	0xbef1539d	-0.47134104
203	0x3ddd9378	0.10819143
204	0x3d66fb9a	0.05639229
205	0xbdc0edfc	-0.09420392
206	0x3e616a14	0.22013122
207	0x3c385c1b	0.011252428
208	0x3e78d9e4	0.24301869
209	0x3e5c8645	0.21535595
210	0xbece1987	-0.4025385
211	0xbd5b7c03	-0.053585064
212	0x3d9a8ba0	0.075461626
213	0xbea02d42	-0.3128453
214	0x3da93fc4	0.082641155
215	0x3cd983ee	0.026552167
216	0xbd76bcf1	-0.060238782
217	0x3e44be37	0.19213186
218	0x3d31820c	0.043336913
219	0xbd1125c7	-0.035436418
220	0x3c39dd41	0.011344255
221	0x3e87b7ef	0.26507518
222	0xbd918d09	-0.071069784
223	0x3de4f53e	0.11179589
224	0x3e769f5e	0.24084231
225	0xbe78ba5c	-0.2428984
226	0xbe2a3a3f	-0.16623782
227	0x3e5882f6	0.21143708
228	0x3e08fc4b	0.13377492
229	0x3d947490	0.07248795
230	0x3b0a5c20	0.002111204
231	0xbca6943b	-0.020334354
232	0xbdbeaff1	-0.09310902
233	0x3e2248bd	0.1584806
234	0x3bccdd66	0.0062519787
235	0x3e751b87	0.23936282
236	0x3e8810b4	0.26575243
237	0xbeb86e78	-0.3602178
238	0xbe742dee	-0.23845646
239	0x3e954b85	0.2915918
240	0xbc86b218	-0.016442344
241	0x3db6e07f	0.08929538
242	0x3e2dc8de	0.16971156
243	0xbe306da6	-0.17229328
244	0xbee27307	-0.44228384
245	0x3e18dabf	0.14927195
246	0x3dd93cc7	0.106072955
247	0x3df4b3d3	0.11948361
248	0x3e39d27c	0.181467
249	0x3d8b6cea	0.06807883
250	0x39fd8627	0.00048355872
251	0x3dd2c768	0.1029194
252	0x3d041852	0.032249756
253	0xbc9ede43	-0.019393092
254	0x3e8fc2e1	0.28078368
255	0x3d61cf9a	0.055129625

cnn.3.bias f4 [128]
0	0x3e1ce2f3	0.1532095
1	0x3d139d71	0.03603882
2	0x3e298fd7	0.16558777
3	0x3da81d42	0.082087055
4	0x3e53edaa	0.2069613
5	0x3e2ac050	0.16674924
6	0x3e43b1af	0.1911075
7	0x3ea1d317	0.3160636
8	0x3eabb063	0.3353301
9	0x3e98acc6	0.29819316
10	0x3eb64c20	0.35604954
11	0x3f1dff5a	0.6171776
12	0x3ec79db6	0.3898751
13	0xbd24a769	-0.040198717
14	0x3ebec834	0.37262118
15	0x3e001914	0.12509567
16	0x3eb27b99	0.34859923
17	0x3ea0c077	0.3139684
18	0x3ebe5f51	0.37182096
19	0x3f109d1f	0.5648975
20	0x3d123be4	0.035701647
21	0x3eac1957	0.33613083
22	0x3f0f7184	0.56032586
23	0xbdaa7f26	-0.08325033
24	0xbea83751	-0.32854703
25	0x3e985556	0.29752606
26	0x3d850eb4	0.06496945
27	0x3ca534a7	0.020166708
28	0x3ea58526	0.32328147
29	0x3e8dce9e	0.276967
30	0x3dc1d5e5	0.09464625
31	0x3e971db5	0.29514852
32	0x3ea5b70d	0.3236622
33	0x3d125dd2	0.035734005
34	0x3e3a13b1	0.18171574
35	0x3e788c1e	0.242722
36	0x3e8db3d3	0.27676257
37	0x3dcd4e1c	0.10024664
38	0x3ea8936d	0.32924977
39	0x3de76948	0.11299378
40	0x3eea714f	0.45789573
41	0x3da447db	0.08021518
42	0x3e2b10af	0.16705583
43	0x3ead2b91	0.338223
44	0xbc9b057e	-0.018923517
45	0x3e99fa94	0.30073988
46	0xbe2e12cc	-0.16999358
47	0x3f4adec4	0.79246163
48	0x3dcccb9b	0.09999772
49	0x3e2a5b18	0.16636312
50	0x3c752eff	0.014964818
51	0x3de04b69	0.10951883
52	0x3e4cf3b2	0.20014837
53	0xbe4a3c2c	-0.19749516
54	0x3e2ba0cb	0.16760556
55	0x3f0976a4	0.53696656
56	0x3e72e91c	0.23721737
57	0x3e3334d3	0.1750062
58	0x3e613341	0.21992208
59	0xbeb61190	-0.35560274
60	0x3e59a981	0.21256067
61	0x3ea54d88	0.32285714
62	0x3ed5cb1f	0.41756532
63	0x3e417f64	0.18896252
64	0xb924471a	-0.00015666746
65	0x3ecd3b4b	0.400843
66	0xbd847578	-0.06467718
67	0x3b890d12	0.0041824663
68	0xbf15be25	-0.5849326
69	0x3e8220b5	0.25415578
70	0xbf023662	-0.5086423
71	0x3eabbcf9	0.33542612
72	0x3e8b8292	0.27248055
73	0x3d9bdd51	0.07610572
74	0x3e849844	0.2589742
75	0x3e3877c3	0.18014435
76	0x3eaabbe5	0.33346477
77	0x3e5ec3d2	0.21754387
78	0x3dcea24c	0.100895494
79	0x3d68fb88	0.056880504
80	0x3ed50f13	0.41613063
81	0x3e3703bd	0.1787252
82	0x3e9b3d65	0.30320278
83	0x3eaf1a07	0.34199545
84	0x3eb7b1df	0.35877892
85	0x3e92da19	0.2868202
86	0x3eac8d7b	0.3370169
87	0x3e65e328	0.22449934
88	0xbeed7269	-0.4637635
89	0x3e07a54e	0.13246652
90	0xbd0a5b03	-0.0337782
91	0x3d8c16bb	0.06840273
92	0x3e2f34b7	0.17109953
93	0x3edac59c	0.4272889
94	0x3e21df8b	0.15807931
95	0x3e64e9c0	0.22354794
96	0x3e3c9b8b	0.1841871
97	0x3e4287f5	0.18997176
98	0xbe156335	-0.14588626
99	0x3e943328	0.2894528
100	0x3f1da751	0.6158343
101	0x3e94c8ad	0.29059353
102	0x3e4c2c12	0.19938686
103	0x3eb477fc	0.3524779
104	0xbe54ddb7	-0.20787703
105	0x3d6b60cd	0.057465363
106	0x3e9c3e18	0.30516124
107	0x3e7bd1d5	0.24591763
108	0xbe06b8bc	-0.13156408
109	0x3ecfbd6e	0.4057421
110	0xbec8d64c	-0.39225996
111	0xbf13c5b3	-0.5772354
112	0x3d815090	0.06314194
113	0x3e49b641	0.1969843
114	0xbdff0b7c	-0.12453362
115	0x3e7a6af6	0.24454865
116	0x3e8a597e	0.27021402
117	0x3eed13fb	0.46304306
118	0x3e61d2e1	0.220531
119	0x3ddfb3f8	0.10922998
120	0x3f05e55a	0.5230309
121	0xbe277555	-0.16353352
122	0x3e501b40	0.20322895
123	0x3e8aa7e0	0.27081203
124	0x3ee2dc33	0.44308624
125	0x3c85ddb7	0.016341073
126	0x3e217de5	0.15770681
127	0x3e06e01a	0.13171425

attn.attn.weight f4 [1, 128]
0	0x3d19ca91	0.037546698
1	0xbe969444	-0.29409993
2	0xba59c034	-0.00083065336
3	0xbec3a7a1	-0.38213828
4	0xbd84dcfd	-0.06487463
5	0x3d48874d	0.048957158
6	0x3ddd8987	0.10817247
7	0x3d926e5b	0.07149955
8	0x3e0661c6	0.13123235
9	0x3e7cb258	0.24677408
10	0x3c35e657	0.011102281
11	0xbec1d8fc	-0.37860858
12	0xbd447aa2	-0.047968514
13	0xbe9a790f	-0.30170485
14	0x3cfebbfd	0.0310955
15	0x3c19deec	0.009391528
16	0x3bd81d82	0.0065953145
17	0x3de16200	0.1100502
18	0xbeb09e4f	-0.3449578
19	0x3e399424	0.18122917
20	0xbcfc612e	-0.030808058
21	0x3dc4c1af	0.09607255
22	0x3d19ddab	0.037564915
23	0xbd388670	-0.045050085
24	0x3b1f0e70	0.002427008
25	0xbf077e24	-0.5292685
26	0xbec4d487	-0.38443395
27	0xbe881eaa	-0.26585895
28	0xbf2d999f	-0.6781253
29	0xbd9b3743	-0.075789
30	0xba8e7ab0	-0.0010870304
31	0x3df3d8b1	0.11906565
32	0xbed0829c	-0.40724647
33	0x3da47c5e	0.08031534
34	0x3e988ea1	0.29796317
35	0x3dc0fa28	0.094227135
36	0x3e2475c3	0.16060548
37	0xbecf67bd	-0.40508834
38	0xbe553a6a	-0.20823064
39	0x3db88c46	0.0901113
40	0x3e95c96d	0.29255238
41	0xbf069c4a	-0.5258223
42	0xbe38b408	-0.18037426
43	0xbbe6bc13	-0.007041463
44	0xbe909925	-0.2824184
45	0xbe925558	-0.28580737
46	0x3d5e5829	0.054283295
47	0x3eb64e6c	0.35606706
48	0x3e4105a5	0.1884981
49	0xbee8447f	-0.45364758
50	0xbdf30a77	-0.118672304
51	0xbd971132	-0.073763266
52	0x3c6db60f	0.014508738
53	0x3da97ae7	0.08275395
54	0x3c5c0bfa	0.01343059
55	0xbede25b5	-0.43388143
56	0xbcf7045c	-0.030153446
57	0x3ccd3666	0.025050353
58	0xbde04f58	-0.109526336
59	0xbdb6aeb2	-0.08920039
60	0xbe9b97dd	-0.303893
61	0xbd65697b	-0.056008797
62	0x3b9a26cc	0.004704332
63	0x3e005795	0.1253341
64	0xbe5bc791	-0.21462847
65	0x3e67d7d8	0.22640932
66	0xbc9762bc	-0.018479697
67	0x3d16d35b	0.036822658
68	0xbd0f6fab	-0.035018604
69	0xbe0451d1	-0.12921835
70	0xbe32d3f3	-0.17463665
71	0xbe07d8c2	-0.1326628
72	0xbdfe9e40	-0.124325275
73	0xbe5822df	-0.21107052
74	0x3eb2d415	0.3492743
75	0xbbf2a11b	-0.007404459
76	0x3e790d13	0.24321394
77	0xbbca652c	-0.0061766114
78	0xbde2df35	-0.110777296
79	0xbe8e8baf	-0.27840945
80	0x3b37546f	0.002797391
81	0x3e318218	0.17334783
82	0xbee07908	-0.4384234
83	0x3e5851fd	0.21125026
84	0xbd34b0db	-0.044113975
85	0x3eb6869d	0.35649577
86	0x3e03905a	0.12848035
87	0x3e2786ef	0.16360067
88	0xbd4b9481	-0.04970217
89	0x3c73763a	0.01485973
90	0xbd25fdf6	-0.0405254
91	0x3d7184c4	0.058964506
92	0xbe944dd4	-0.28965628
93	0x3e073794	0.13204795
94	0xbeec3ffc	-0.46142566
95	0xbe31f35e	-0.17377993
96	0x3e8942e1	0.26808837
97	0x3dbe3786	0.09287934
98	0x3d7d815e	0.061890952
99	0xbb0d7956	-0.0021587214
100	0x3e7a511e	0.24445006
101	0x3e86fc97	0.26364586
102	0xbdd04303	-0.101690315
103	0x3ec9c187	0.39405462
104	0xbd0807b8	-0.033210486
105	0x3df4e039	0.119568296
106	0x3e6fa7a2	0.2340379
107	0x3e0cb284	0.13739973
108	0xbe9fad23	-0.3118678
109	0x3cbd7b09	0.023129957
110	0xbdc55591	-0.09635461
111	0xbcf63a43	-0.030057078
112	0xbe56cb92	-0.20976093
113	0x3d874efa	0.066068605
114	0xbef7a3da	-0.48367196
115	0x3cf3df9e	0.029769715
116	0x3ccb466b	0.024813851
117	0x3e62d385	0.22151001
118	0x3ce852b9	0.028359758
119	0xbdc1ac8e	-0.0945674
120	0x3c54ab0d	0.012980235
121	0xbcb20319	-0.021729993
122	0xbe89bef5	-0.269035
123	0xbe04733f	-0.12934588
124	0xbcb3bfc1	-0.021942021
125	0xbec2f103	-0.38074502
126	0x3e902179	0.28150538
127	0xbc8a332a	-0.0168701

fc.weight f4 [6, 128]
0	0xbf416998	-0.7555175
1	0xbd32efdb	-0.043685775
2	0xbf488062	-0.78320897
3	0xbec80b0d	-0.3907093
4	0xbf13879c	-0.576288
5	0x3deb0ea5	0.114774026
6	0xbf66f73f	-0.9022102
7	0xbee8d873	-0.45477638
8	0xbf0cfdf4	-0.55075
9	0xbf334d11	-0.7003947
10	0xbf5954d1	-0.84895045
11	0x3e36b156	0.17841086
12	0xbec8afa3	-0.391965
13	0xbf419a0b	-0.75625676
14	0x3e18f61e	0.14937636
15	0xbf0745f0	-0.5284109
16	0xbefe9d11	-0.49729207
17	0xbee9f9a8	-0.45698285
18	0x3e8286db	0.25493512
19	0x3e20e4a1	0.15712215
20	0x3ddaf2ad	0.10690818
21	0xbee9c924	-0.4566127
22	0x3d90b5ad	0.07065902
23	0x3e9acaee	0.30232948
24	0x3de1a683	0.11018088
25	0xbbc9282f	-0.0061388235
26	0x3e2c5aa8	0.16831458
27	0xbf3a14c8	-0.7268796
28	0x3cf0e2e8	0.029405072
29	0x3eb17ca5	0.3466541
30	0xbe2ed6ee	-0.17074177
31	0xbee2e1e8	-0.44312978
32	0x3dd51e6a	0.10406192
33	0x3db64513	0.088998936
34	0xbf5971a7	-0.84939045
35	0xbdd704e1	-0.104989775
36	0xbf1cad31	-0.6120177
37	0xbab4efa1	-0.0013804325
38	0x3da855f4	0.08219519
39	0xbec85971	-0.39130738
40	0x3dd40e5a	0.103543
41	0xbd2ab9da	-0.041681148
42	0x3d76c582	0.060246952
43	0x3f059abe	0.5218924
44	0xbd9f8044	-0.077881366
45	0xbe63b769	-0.22237934
46	0x3e2dfb95	0.16990502
47	0x3e2d5c8c	0.16929835
48	0xbf455aad	-0.77091485
49	0xbd6c3ab5	-0.057673175
50	0x3e4525db	0.19252722
51	0x3d5a68dd	0.05332266
52	0x3da3a28b	0.07989987
53	0x3bc045a2	0.005867676
54	0x3dd5c7f7	0.10438531
55	0x3e074725	0.13210733
56	0xbea8be21	-0.32957557
57	0xbeeecf20	-0.466424
58	0x3d8a3f71	0.06750382
59	0x3dee94c4	0.116494685
60	0xbf2fa5ce	-0.6861237
61	0xbef64367	-0.480983
62	0x3f127453	0.57208747
63	0xbebe37d6	-0.37151974
64	0x3bd62de2	0.0065362314
65	0xbf43f3c9	-0.7654386
66	0xbed94d13	-0.42441615
67	0x3ebbdb9f	0.36690995
68	0x3dc7ad76	0.09749882
69	0xbec385e2	-0.38188082
70	0x3d5b45b4	0.05353327
71	0x3f1ac276	0.60452974
72	0x3d2258cd	0.03963547
73	0xbf006302	-0.50151074
74	0x3d5a1d9c	0.053250894
75	0x3e017c55	0.12645085
76	0xbf4109fe	-0.7540587
77	0xbf033978	-0.51259565
78	0xbecc8e8e	-0.3995251
79	0xbdeb6dad	-0.11495528
80	0x3d925f85	0.07147125
81	0xbf1f3915	-0.62196475
82	0x3e44304e	0.19159052
83	0xbf98e49b	-1.1944765
84	0x3daa5be1	0.08318306
85	0xbf37dc29	-0.7182031
86	0xbf833d42	-1.0253069
87	0x3e10a507	0.14125453
88	0x3dc677f9	0.09690852
89	0x3eee43c4	0.46536076
90	0x3e43dfb8	0.1912831
91	0xbf0dfe95	-0.55466586
92	0xbf36cca8	-0.7140603
93	0xbf69680e	-0.911744
94	0xbdf5cb78	-0.12001699
95	0xbf3ae7c3	-0.7300989
96	0x3c8937da	0.016750265
97	0xbedccef0	-0.4312663
98	0x3ec066cd	0.3757843
99	0xbed34d69	-0.41269997
100	0x3e80abc8	0.2513106
101	0xbf47c61e	-0.7803668
102	0xbecaa751	-0.39580777
103	0xbf15ddf3	-0.5854179
104	0x3e5b0593	0.21388845
105	0xbea6950c	-0.3253559
106	0xbf1b6e98	-0.6071563
107	0xbee73f05	-0.45165268
108	0xbe47465a	-0.1946043
109	0x3e37e054	0.17956668
110	0x3e1cf645	0.1532832
111	0x3db0a798	0.08625716
112	0xbdb420bf	-0.08795308
113	0x3dc1573b	0.09440466
114	0xbebd92c9	-0.3702605
115	0x3dca6c31	0.09883917
116	0xbf0b1c17	-0.54339737
117	0xbf064bff	-0.5245971
118	0x3def7b48	0.11693436
119	0x3d56d30e	0.05244737
120	0x3e59f409	0.21284498
121	0xbeae5492	-0.34048897
122	0x3e1a3964	0.15060955
123	0xbf0979ff	-0.53701776
124	0x3e4e7752	0.20162705
125	0xbce327af	-0.027728884
126	0x3d445db7	0.047940936
127	0xbf0657bb	-0.52477616
128	0x3e129bf2	0.14317301
129	0xbc6c2da8	-0.014415182
130	0x3e247c30	0.16062999
131	0x3c93b292	0.018029485
132	0x3dd68896	0.104752705
133	0x3e4a79ea	0.19773069
134	0x3e0d9060	0.13824606
135	0x3e2da1f1	0.16956307
136	0x3e08b729	0.1335112
137	0x3da67174	0.08127108
138	0x3e080d57	0.13286339
139	0xbed8122c	-0.42201364
140	0xbf36248f	-0.71149534
141	0x3e009804	0.1255799
142	0xbeaef962	-0.3417464
143	0x3c520b02	0.012820007
144	0xbf378343	-0.71684664
145	0x3e45de5c	0.19323105
146	0xbe89ccfd	-0.26914206
147	0xbe9140cf	-0.28369758
148	0x3dbccd66	0.09218864
149	0xbf370405	-0.7149051
150	0xbc6dfbd0	-0.014525369
151	0xbf3bfaaa	-0.7342936
152	0x3dbe2c4f	0.09285795
153	0xbe67f6f4	-0.22652799
154	0xbd48c2d6	-0.049013935
155	0x3d705976	0.058679067
156	0xbe3062dc	-0.17225212
157	0xbe4db1b2	-0.20087317
158	0x3d6d7be9	0.057979498
159	0x3e3d29c4	0.18472964
160	0xbdbe74dc	-0.09299633
161	0xbea8fca2	-0.33005244
162	0x3db156da	0.08659144
163	0x3dce1d82	0.10064222
164	0x3c331522	0.010930331
165	0x3dec1f1c	0.11529371
166	0xbecebbc4	-0.4037763
167	0xbf0ace3d	-0.54220945
168	0x3d603687	0.0547395
169	0x3df39492	0.11893572
170	0xbd46928f	-0.048479613
171	0xbe3288f0	-0.1743505
172	0x3dcea129	0.100893326
173	0xbe3e4127	-0.18579541
174	0xbf0708f9	-0.52748066
175	0xbf0a97ea	-0.5413805
176	0x3e3432c4	0.1759749
177	0x3d5ea96b	0.05436079
178	0xbed92e99	-0.42418364
179	0xbe4d36fe	-0.20040509
180	0xbdebd458	-0.11515111
181	0xbf46d4c1	-0.77668387
182	0xbda23693	-0.079205655
183	0xbe2273a1	-0.15864421
184	0x3e5691e6	0.20954093
185	0x3daa6212	0.08319487
186	0x3d0d6852	0.034523316
187	0x3cbf4c98	0.023351952
188	0x3d9fc65f	0.07801508
189	0xbf412f8e	-0.7546319
190	0xbe872ab4	-0.26399767
191	0x3e15065d	0.14553209
192	0xbf177147	-0.5915722
193	0xbe209acb	-0.15684049
194	0xbe301131	-0.17194058
195	0xbed53b29	-0.41646698
196	0x3dae11bf	0.084994785
197	0x3e033690	0.12813783
198	0x3d7263d4	0.059177235
199	0xbe7bd3b6	-0.2459248
200	0x3bceff33	0.006317043
201	0x3e556aaf	0.20841478
202	0x3b363f02	0.0027808552
203	0xbdeee207	-0.11664205
204	0x3dd45c0e	0.103691205
205	0x3dcf0334	0.10108033
206	0xbb2bfd55	-0.0026243527
207	0xbd5fd9df	-0.054651137
208	0x3cd42483	0.025896316
209	0x3dbf6d20	0.09346986
210	0xbd7f7275	-0.062365014
211	0x3d6e9984	0.058251873
212	0x3e2d5660	0.1692748
213	0x3dd222f9	0.10260577
214	0xbe828f84	-0.2550012
215	0x3d30eafe	0.043192856
216	0x3d030ba8	0.03199354
217	0xbdc83593	-0.097758435
218	0xbeb9f06f	-0.3631625
219	0xbdcfad6d	-0.101405
220	0x3dd4403c	0.10363814
221	0xbdcbfe51	-0.099606164
222	0xbe488b8f	-0.19584487
223	0x3de54f2d	0.11196742
224	0x3d256475	0.040379006
225	0xbd13d68b	-0.036093276
226	0xbefd24e3	-0.49442205
227	0xbe76307a	-0.2404193
228	0xbf099da6	-0.5375618
229	0x3dbf1e31	0.093319304
230	0x3c9c0f4d	0.019050265
231	0x3daa3740	0.08311319
232	0x3dc4d72c	0.09611353
233	0xbb4a874d	-0.00309034
234	0x3d124447	0.035709646
235	0xbd31e429	-0.04343048
236	0x3b8902ef	0.004181258
237	0xbe9fb224	-0.31190598
238	0x3e0bf8e1	0.13669159
239	0x3d5d9feb	0.054107588
240	0x3d563cb2	0.052303977
241	0xbd8e07f8	-0.06935114
242	0x3c412ab0	0.011789963
243	0xbe83d5ae	-0.25748962
244	0x3d6eb049	0.058273587
245	0xbf0ce08c	-0.5503013
246	0xbd3f8566	-0.046758078
247	0xbe7a525d	-0.24445482
248	0xbe813bf7	-0.25241062
249	0xbe705a94	-0.23472053
250	0x3c2e4337	0.010636142
251	0x3db593cf	0.08866083
252	0xbe9ecbe9	-0.31014946
253	0x3dbe9d19	0.09307308
254	0xbe107f64	-0.14111096
255	0x3d4e9e4b	0.05044393

fc.bias f4 [6]
0	0x3f4b0fbc	0.79320884
1	0xbe39a2e6	-0.18128547
2	0xbe1daf72	-0.15398958
3	0xbe2ba8c9	-0.16763605
4	0x3e5eaf84	0.21746641
5	0x3e26533f	0.16242693
