artifacts/hgae_gating.pth (torch, 76784 bytes, 6 tensors)

fc.0.weight f4 [128, 76]
0.4638027 -0.3770417 -0.45043218 0.036847815 -0.90694416 0.5848746 0.017531855 0.1214789
-0.8069405 0.098566584 -0.21372654 0.10969741 0.16674465 0.13848808 -0.0035841085 0.01786248
0.06891066 0.19121723 0.12336634 0.2370014 0.10850479 0.12424019 0.18988477 0.0312944
0.18365827 -0.063480884 -0.096361905 0.11056415 0.06321121 0.049426787 0.03793821 -0.08042566
-0.0598485 -0.033712093 0.087342076 -0.07066131 0.0824268 0.1999783 -0.06410664 0.2105175
0.16862127 0.012874238 0.12420309 0.16595875 0.10963181 0.15055512 0.16844194 -0.036163453
-0.07075961 -0.040457435 -0.045095008 -0.019236278 0.11168404 0.019309757 0.13688385 -0.015916878
0.17555681 0.07230534 0.00832257 0.1286305 0.17059086 -0.022646982 0.13877314 0.29754585
0.12032656 0.08319376 0.11146386 -0.016585285 -0.12664104 0.03883626 0.018501468 -0.038126912
0.0005324661 0.20049708 0.035369974 0.033986818 0.25676754 -0.1409504 0.42916918 -0.17103718
-0.9031824 -0.38906568 0.09675317 -0.08186789 -0.016700022 0.28301108 -0.21103278 0.33562258
0.1190891 -0.1458143 -0.1739262 0.061304852 0.062397785 -0.18568341 0.045135338 0.056431517
-0.048064813 -0.08147211 0.056323137 0.013296937 -0.006519209 -0.12013213 -0.15587263 -0.101027526
0.00013756343 0.09406847 0.1704402 0.042310044 0.021141222 -0.0823526 0.007930767 -0.063752726
0.09080965 0.01923698 0.014494508 -0.18592042 -0.09046342 0.11721248 0.11015146 -0.01515557
0.035610158 -0.14535111 -0.1385313 0.054351438 0.10884123 -0.03703952 -0.021215312 0.083754204
0.119486645 -0.04325968 -0.03870999 0.11337538 -0.04308355 0.025190324 0.023731166 -0.014054659
0.04519373 -0.07665444 0.14305145 0.09306814 0.06733312 -0.038167726 -0.031661104 -0.058157813
-0.0032244932 0.02440505 9.482427e-05 -0.062575065 -0.04000208 -0.05820766 0.052000057 -0.09199931
-0.4271567 0.09266058 0.13766807 -0.36074075 -1.5876276 0.25099227 -0.020745648 -0.013730226
-0.059162043 0.016358508 -0.014338972 0.17162463 0.072050944 -0.17201103 -0.027637448 0.07736349
-0.050114207 -0.14945988 -0.18295656 -0.08367422 0.049464695 0.0052092345 0.08252175 -0.01565047
-0.18965454 0.0077396906 -0.022121126 0.020928262 -0.08733364 7.7995195e-05 0.14278905 0.05297811
0.12259554 -0.0015768188 -0.09230179 0.15293208 -0.0006243422 0.054145463 0.035142735 -0.11870039
-0.010996839 0.051863346 -0.05189279 0.10535076 -0.11978751 -0.08320659 -0.009842597 0.00011107749
-0.11661123 0.112052694 -0.09936056 0.13399528 -0.15812302 0.038959604 0.03189676 -0.050109863
0.08057768 0.18501312 0.029249024 0.17599197 -0.13611944 -0.1885268 -0.08505993 0.008323442
-0.06569131 0.004736249 0.040314365 -0.05087335 0.006774082 -0.09978478 0.008294414 0.102117
0.04271606 0.0071235956 0.10027272 0.04672584 0.40342847 0.15843156 -1.1080934 0.14451994
0.30541867 0.50490725 0.11413779 0.24432483 -0.2805248 0.26702416 0.12981339 0.36374363
-0.082195 -0.08672869 0.030705756 0.047486953 0.1086287 -0.15404777 0.1172775 0.13450867
0.048330337 -0.058394667 -0.09888479 0.083818704 0.055689543 -0.11199324 -0.04289194 0.09172818
00000000: 8c77 ed3e 9c0b c1be 0c9f e6be bced 163d
00000010: 7e2d 68bf 57ba 153f f79e 8f3c eec9 f83d
00000020: a793 4ebf 47dd c93d 21db 5abe 09a9 e03d
00000030: 1cbf 2a3e d2cf 0d3e 5de3 6abb 5654 923c
00000040: 0821 8d3d 73ce 433e 7ea7 fc3d 7fb0 723e
00000050: c237 de3d a471 fe3d 2771 423e 8f2e 003d
00000060: ea10 3c3e 4402 82bd 6459 c5bd 756f e23d
00000070: e174 813d be73 4a3d 1965 1b3d 35b6 a4bd
00000080: b323 75bd b115 0abd 67e0 b23d e0b6 90bd
00000090: 62cf a83d 1dc7 4c3e 584a 83bd e691 573e
000000a0: 0eab 2c3e 78ee 523c 315e fe3d 17f1 293e
000000b0: a486 e03d 1f2b 1a3e 0b7c 2c3e 2120 14bd
000000c0: 6aea 90bd b2b6 25bd 8bb5 38bd 6695 9dbc
000000d0: 9aba e43d 7f2f 9e3c 482b 0c3e 1d64 82bc
000000e0: 2ac5 333e d214 943d 635b 083c b7b7 033e
000000f0: 5faf 2e3e 2a86 b9bc 8c1a 0e3e ee57 983e
00000100: c66d f63d 7d61 aa3d 2a47 e43d dddd 87bc
00000110: 30ae 01be c512 1f3d 6490 973c f72a 1cbd
00000120: 3295 0b3a 1b4f 4d3e 1be0 103d c335 0b3d
00000130: 0977 833e 4d55 10be 10bc db3e 5f24 2fbe
00000140: f636 67bf 9e33 c7be 8726 c63d 5aaa a7bd
00000150: 7cce 88bc d4e6 903e fa18 58be b9d6 ab3e
00000160: fce4 f33d 5850 15be b619 32be cc1a 7b3d
00000170: d294 7f3d cb23 3ebe d5df 383d bc24 673d
00000180: 9cdf 44bd d9da a6bd 17b3 663d 65db 593c
00000190: 179f d5bb d607 f6bd 139d 1fbe 85e7 cebd
000001a0: e73e 1039 f8a6 c03d e087 2e3e 4c4d 2d3d
000001b0: 5b30 ad3c 7ba8 a8bd 0cf0 013c ca90 82bd
000001c0: 69fa b93d df96 9d3c 5f7a 6d3c ec61 3ebe
000001d0: e344 b9bd 190d f03d 1797 e13d 114f 78bc
000001e0: f5db 113d ecd6 14be 26db 0dbe 9d9f 5e3d
000001f0: 27e8 de3d c0b6 17bd bccb adbc 5387 ab3d
00000200: 6ab5 f43d 1031 31bd 5e8e 1ebd 5a31 e83d
00000210: 6078 30bd f05b ce3c dd67 c23c 8345 66bc
00000220: 101d 393d 01fd 9cbd 147c 123e 829a be3d
00000230: f2e5 893d c355 1cbd 13af 01bd e336 6ebd
00000240: 0552 53bb 19ed c73c 64dc c638 5b27 80bd
00000250: 39d9 23bd 286b 6ebd 03fe 543d 226a bcbd
00000260: 48b4 dabe d5c4 bd3d dcf8 0c3e 03b3 b8be
00000270: 6237 cbbf 0f82 803e c7f2 a9bc bef4 60bc
00000280: e653 72bd 4702 863c 02ee 6abc 5ebe 2f3e
00000290: 728f 933d a923 30be ee67 e2bc c070 9e3d
000002a0: 8e44 4dbd 030c 19be f758 3bbe 645d abbd
000002b0: 7e9b 4a3d 3ab2 aa3b 2a01 a93d 6a35 80bc
000002c0: cd34 42be 3b9d fd3b 5d37 b5bc bf71 ab3c
000002d0: fbdb b2bd 5a91 a338 4b37 123e 93ff 583d
000002e0: 5f13 fb3d 42ad ceba b908 bdbd 3a9a 1c3e
000002f0: e5aa 23ba a2c7 5d3d d4f1 0f3d 3119 f3bd
00000300: 162c 34bc a96e 543d 898d 54bd 24c2 d73d
00000310: 2753 f5bd 3768 aabd d842 21bc 46f2 e838
00000320: ded1 eebd e27b e53d 8d7d cbbd 0f36 093e
00000330: 00eb 21be 1b94 1f3d 2da6 023d 0040 4dbd
00000340: e905 a53d 1474 3d3e a69b ef3c 3d37 343e
00000350: e562 0bbe 2b0d 41be e733 aebd 0c5f 083c
00000360: 2a89 86bd 8932 9b3b ad20 253d 9360 50bd
00000370: 1ef9 dd3b f65b ccbd 4be5 073c b822 d13d
00000380: 09f7 2e3d 0d6d e93b c95b cd3d 9863 3f3d
00000390: 2d8e ce3e e23b 223e 01d6 8dbf 09fd 133e
000003a0: d65f 9c3e 9a41 013f 13c1 e93d 4a30 7a3e
000003b0: f2a0 8fbe 64b7 883e cded 043e 9b3c ba3e
000003c0: da55 a8bd d09e b1bd a38a fb3c ae81 423d
000003d0: b978 de3d b3be 1dbe 302f f03d a4bc 093e
000003e0: 08f6 453d 3f2f 6fbd 1c84 cabd 24a9 ab3d
000003f0: b81a 643d b65c e5bd 75af 2fbd fcdb bb3d

fc.0.bias f4 [128]
0.06827318 -0.14246239 -0.013218909 0.092594616 0.056282222 0.06058126 -0.12059707 0.08687058
-0.026021315 -0.14284909 0.01253227 0.14133032 -0.0064735054 -0.09535136 0.01828571 -0.051091865
0.10290778 -0.05866133 -0.19343282 -0.14715564 0.072722696 0.035689574 -0.24800456 0.03992598
-0.11219357 -0.042327616 -0.057046253 -0.14821643 -0.21595387 -0.028621841 -0.081011906 -0.15563555
-0.040619604 0.10100723 -0.046230033 -0.14330375 -0.06029545 -0.0720808 0.033502303 -0.35761037
0.040730108 -0.15186478 -0.028731707 -0.31073248 -0.08212524 -0.08990458 -0.0020058758 -0.073352486
0.015712293 -0.043806735 -0.14462034 0.00045742557 0.049279142 0.084306024 0.043996736 -0.083441846
-0.15725589 -0.16501862 0.0133353425 -0.013305298 -0.044025403 0.014785038 -0.09256849 -0.0026636645
-0.20796873 -0.04588445 -0.074534796 -0.09466444 -0.00962491 -0.033074416 -0.008036057 -0.03905296
-0.07829488 -0.062207125 0.048128735 -0.12275564 -0.16301046 -0.08886605 -0.071694866 0.023507614
0.057944342 0.03321069 0.010643812 -0.25318578 -0.097625926 0.0779342 0.09866481 0.09422933
-0.24910778 -0.049519945 -0.08783766 0.038962994 0.049959764 -0.060138907 -0.0071105235 -0.07203973
0.08807927 0.031205155 0.16902733 -0.18870437 -0.04166788 -0.06530174 -0.09769258 -0.15858383
0.008141034 0.10732905 -0.08352028 0.073744066 -0.19505006 -0.06649539 0.12665538 -0.1808437
-0.15275761 0.07142837 -0.09549669 -0.04349446 -0.07602421 0.058212396 0.05337115 0.0029821564
0.018540045 -0.009162493 0.0052823587 -0.058628637 -0.08876656 -0.035981152 -0.022727536 0.0055481885
00000000: cfd2 8b3d a9e1 11be 1f94 58bc 3fa2 bd3d
00000010: 3088 663d 0e24 783d 99fb f6bd 34e9 b13d
00000020: a72a d5bc 0847 12be 2654 4d3c e5b8 103e
00000030: b31f d4bb 9347 c3bd eacb 953c b445 51bd
00000040: 50c1 d23d dd46 70bd 4113 46be f8af 16be
00000050: a3ef 943d 3b2f 123d e8f4 7dbe 6d89 233d
00000060: bec5 e5bd b95f 2dbd 55a9 69bd 0cc6 17be
00000070: 0323 5dbe 5a78 eabc 92e9 a5bd ed5e 1fbe
00000080: be60 26bd e1dc ce3d b45b 3dbd 38be 12be
00000090: 5df8 76bd 199f 93bd b639 093d b518 b7be
000000a0: 9dd4 263d 7182 1bbe c25e ebbc 5418 9fbe
000000b0: 4731 a8bd e41f b8bd 0375 03bb d439 96bd
000000c0: 11b7 803c b16e 33bd 5b17 14be 9fd2 ef39
000000d0: edd8 493d a3a8 ac3d ec35 343d 8fe3 aabd
000000e0: b007 21be a4fa 28be 7b7c 5a3c 77fe 59bc
000000f0: fb53 34bd f23c 723c 8c94 bdbd e090 2ebb
00000100: c1f5 54be 55f1 3bbd b3a5 98bd 6edf c1bd
00000110: ccb1 1dbc 0a79 07bd aba9 03bc fff5 1fbd
00000120: 1159 a0bd e6cc 7ebd a322 453d 4f67 fbbd
00000130: 37ec 26be 67ff b5bd c2d4 92bd 0a93 c03c
00000140: 0c57 6d3d ef07 083d 6263 2e3c 91a1 81be
00000150: 1af0 c7bd f79b 9f3d c710 ca3d 4ffb c03d
00000160: 1c16 7fbe 6dd5 4abd 3be4 b3bd a997 1f3d
00000170: 9ca2 4c3d 3754 76bd 65ff e8bb 9189 93bd
00000180: e862 b43d f4a1 ff3c 8015 2d3e b83b 41be
00000190: f0ab 2abd ebbc 85bd 0c13 c8bd cd63 22be
000001a0: f961 053c 55cf db3d ae0c abbd 2107 973d
000001b0: 34bb 47be bc2e 88bd f3b1 013e 172f 39be
000001c0: 7e6c 1cbe 0a49 923d c593 c3bd 3f27 32bd
000001d0: 95b2 9bbd 1f70 6e3d b59b 5a3d 4870 433b
000001e0: 4be1 973c 481e 16bc a317 ad3b 9524 70bd
000001f0: 3ecb b5bd f960 13bd 192f babc 94cd b53b

fc.3.weight f4 [64, 128]
-0.32493746 -0.08784545 0.07141376 -0.098522045 0.22230504 -0.39091685 0.13520667 -0.03102334
-0.013671829 -0.025219077 0.0501025 -0.5814665 0.03837414 0.23054399 -0.053260278 0.14816733
0.15153442 -0.05168916 -0.24971697 0.19660363 0.1179758 0.09904123 -0.28008723 0.022939533
0.022906534 -0.30403715 0.088900164 -0.26554653 0.03236761 -0.30159 0.0839309 -0.31436074
0.29807675 0.023040293 -0.043597292 -0.2958 0.28221437 0.08739647 -0.086692125 0.3392095
-0.045165308 -0.10251 -0.1956452 0.13638951 -0.114624284 0.045150746 0.111436225 0.18214983
0.093071036 0.08143827 0.49458823 -0.45759574 0.24433358 -0.05790262 -0.27539912 -0.3887234
-0.34630105 0.069711834 -0.05463073 0.27038342 0.21417145 0.22407384 0.018932067 -0.04504315
-0.19719653 0.20967478 0.23032004 -0.50189614 -0.35699263 -0.0066804597 -0.5107812 -0.5257287
-0.14437568 0.21451332 -0.07311261 -0.2550467 -0.13293742 -0.13440037 -0.007002164 0.21965234
0.13845153 -0.04870067 0.01580907 0.484851 -0.11363704 0.14533298 0.06989061 -0.42461124
-0.0030302366 -0.34784314 -0.078548305 -0.31748143 -0.47986162 0.10570868 0.07840025 0.20889014
-0.24804117 -0.020843137 0.053499777 -0.19730599 -0.16585374 -0.16175246 -0.10231775 -0.023033572
0.05916105 -0.06784712 -0.4811909 -0.47621277 -0.35812727 -0.14742249 0.042997204 0.005137739
-0.32959902 0.11752255 0.08298331 -0.10450123 0.019191181 0.07897717 -0.17402229 0.19322047
-0.35861927 0.20782608 0.10083132 -0.010472741 -0.0592239 0.23270503 0.09212053 0.14084326
-0.39429274 -0.1979946 -0.00093926745 -0.18705995 0.07455347 -0.43083343 0.084577836 0.054981332
-0.10146814 0.048382714 0.05124455 -0.29773656 0.06904458 0.19655174 -0.09994494 0.1602924
-0.023390677 0.12875548 -0.32611075 0.20053901 0.20860846 0.2130861 -0.30177104 -0.08916273
-0.027308747 -0.35038117 0.31324112 0.014504266 0.15836714 -0.2824609 0.03584091 -0.33659056
0.08325426 -0.22730954 -0.08190096 -0.077475816 0.35408378 0.23234554 -0.016195133 0.38259426
-0.010654977 -0.15039913 -0.48642763 0.3253121 0.050897762 -0.07253246 -0.020804117 0.12474176
0.15626453 0.04730798 0.46144018 -0.32227284 0.21144828 -0.10414618 -0.21860531 -0.21366432
-0.32750738 -0.018282685 0.060882926 0.2519953 0.31637478 0.19382343 0.14123975 0.006039555
-0.26969048 0.13251 0.2622186 -0.2839765 -0.32315603 0.016322529 -0.40441892 -0.37177336
-0.23745354 0.1380507 0.06908054 -0.20459427 -0.24841014 0.015288533 -0.02325465 0.26733407
0.15481204 -0.058140997 0.055388447 0.24406965 -0.1172021 0.024951933 -0.033487357 -0.19732097
-0.03221639 -0.32130462 0.04480101 -0.47547072 -0.25097886 0.016700072 0.17998825 0.35729334
-0.30244663 -0.010064548 0.02435039 -0.12659226 -0.30022502 -0.25944775 -0.10295367 -0.0010037347
0.035329673 -0.19114502 -0.16994017 -0.34986567 -0.38479367 0.055638608 -0.23146966 0.073352724
-0.4726426 0.16257502 0.0064137965 -0.24407221 0.16147584 0.048792277 0.027456617 0.029561514
-0.24394627 0.0809628 0.26021534 0.04038948 -0.020623839 0.3855608 0.19423896 0.2683155
00000000: 345e a6be 51e8 b3bd 6141 923d edc5 c9bd
00000010: efa3 633e 4126 c8be 9e73 0a3e a924 febc
00000020: cfff 5fbc 3d98 cebc 4738 4d3d fdda 14bf
00000030: 342e 1d3d b913 6c3e 7327 5abd 2db9 173e
00000040: d72b 1b3e 03b8 53bd ceb5 7fbe 7652 493e
00000050: 4c9d f13d 21d6 ca3d 9867 8fbe b0eb bb3c
00000060: 7ca6 bb3c c2aa 9bbe 4a11 b63d b7f5 87be
00000070: e693 043d 016a 9abe f7e3 ab3d e4f3 a0be
00000080: 849d 983e ffbe bc3c 1393 32bd 1973 97be
00000090: 677e 903e ecfc b23d a48b b1bd deac ad3e
000000a0: 42ff 38bd c3f0 d1bd 3757 48be b1a9 0b3e
000000b0: 23c0 eabd fdef 383d ad38 e43d 7c85 3a3e
000000c0: 079c be3d 1cc9 a63d ab3a fd3e fd49 eabe
000000d0: 9532 7a3e 4c2b 6dbd 1d01 8dbe c106 c7be
000000e0: 5f4e b1be 14c5 8e3d 79c4 5fbd b26f 8a3e
000000f0: c34f 5b3e 9d73 653e 6c17 9b3c 2b7f 38bd
00000100: e3ed 49be fcb4 563e 04d9 6b3e 447c 00bf
00000110: bdc7 b6be c2e7 dabb 8fc2 02bf 2896 06bf
00000120: 38d7 13be 61a9 5b3e 10bc 95bd 7b95 82be
00000130: bf20 08be 40a0 09be 6972 e5bb 8bec 603e
00000140: 3dc6 0d3e 5b7a 47bd 0682 813c 643e f83e
00000150: 89ba e8bd 2bd2 143e cf22 8f3d a566 d9be
00000160: ef96 46bb 7f18 b2be efdd a0bd ed8c a2be
00000170: 6cb0 f5be cb7d d83d 4f90 a03d 4ce7 553e
00000180: 81fe 7dbe 3abf aabc 9522 5b3d 950a 4abe
00000190: 90d5 29be 70a2 25be f88b d1bd e7b0 bcbc
000001a0: db52 723d 6ef3 8abd a75e f6be 29d2 f3be
000001b0: 755c b7be ecf5 16be d61d 303d 7a5a a83b
000001c0: 34c1 a8be aaaf f03d 27f3 a93d be04 d6bd
000001d0: d336 9d3c c8be a13d e632 32be 96db 453e
000001e0: f29c b7be 5cd0 543e a780 ce3d dc95 2bbc
000001f0: c394 72bd 3a4a 6e3e b0a9 bc3d 3739 103e
00000200: bde0 c9be 19bf 4abe 2c39 76ba a58c 3fbe
00000210: 7daf 983d 3396 dcbe 2537 ad3d 1b34 613d
00000220: 87ce cfbd f42c 463d cee5 513d ed70 98be
00000230: 3f67 8d3d dc44 493e efaf ccbd b123 243e
00000240: ce9d bfbc 7ad8 033e fdf7 a6be 195a 4d3e
00000250: 759d 553e 3e33 5a3e bc81 9abe f39a b6bd
00000260: 98b6 dfbc 2965 b3be 2461 a03e 4da3 6d3c
00000270: ff2a 223e b79e 90be ebcd 123d 9955 acbe
00000280: 3681 aa3d d5c3 68be b1bb a7bd a4ab 9ebd
00000290: 784a b53e fdeb 6d3e a8ab 84bc 65e3 c33e
000002a0: 3692 2ebc 3b02 1abe 0b0d f9be 4f8f a63e
000002b0: 2c7a 503d e68b 94bd 656d aabc 9c78 ff3d
000002c0: cf03 203e 03c6 413d e341 ec3e f200 a5be
000002d0: e685 583e 984a d5bd 12da 5fbe d2ca 5abe
000002e0: 0caf a7be 92c5 95bc 6060 793d 8705 813e
000002f0: e0fb a13e a679 463e 27a1 103e 76e7 c53b
00000300: df14 8abe b4b0 073e 8441 863e 5e65 91be
00000310: b574 a5be d3b6 853c ff0f cfbe 1459 bebe
00000320: 0527 73be 2a5d 0d3e 197a 8d3d 2981 51be
00000330: 3a5f 7ebe c17c 7a3c 8980 bebc 03e0 883e
00000340: 0c87 1e3e 4125 6ebd ffde 623d 65ed 793e
00000350: a807 f0bd ff67 cc3c 0a2a 09bd 820e 4abe
00000360: 55f5 03bd 0a82 a4be 4481 373d e670 f3be
00000370: 4d80 80be 97ce 883c d74e 383e 27ef b63e
00000380: 49da 9abe c6e5 24bc 787a c73c 67a1 01be
00000390: 18b7 99be 56d6 84be 60d9 d2bd bf8f 83ba
000003a0: d9b5 103d 85bb 43be cc04 2ebe 9821 b3be
000003b0: ad03 c5be 4fe5 633d 6206 6dbe f439 963d
000003c0: 36fe f1be 117a 263e d32a d23b 11ee 79be
000003d0: ec59 253e 69da 473d b3ec e03c fd2a f23c
000003e0: 0dcd 79be d3cf a53d f23a 853e 706f 253d
000003f0: 53f3 a8bc 3a68 c53e 94e6 463e a660 893e

fc.3.bias f4 [64]
0.17965692 0.14923567 0.1296923 0.031803 0.1331901 0.20396288 0.041854106 0.011665028
0.17204043 0.15357706 0.11109054 0.21657772 0.13221018 0.08972832 0.12190452 0.036246043
0.054364685 0.18120438 0.0370684 0.2805103 0.15654095 0.19593854 0.18803035 0.05017423
0.03892448 0.1340809 0.15479623 0.10731563 0.1210688 0.2726683 0.052911926 0.17429149
0.18544336 0.14500907 0.12530966 0.15804191 0.00041034425 0.016374769 0.10010241 0.013457775
0.19890797 0.031350907 -0.0466979 -0.031228764 0.21187858 0.122912556 0.08978461 0.02591804
0.1852213 0.15341033 0.115647145 0.10976819 -0.21550193 0.16951782 0.15235184 0.26412398
0.12082962 -0.012581759 0.10723462 0.25437692 0.08933003 0.17090741 0.123938665 0.08281643
00000000: fcf7 373e 3cd1 183e 0fce 043e dd43 023d
00000010: fc62 083e a5db 503e 366f 2b3d ac1e 3f3c
00000020: 5e2b 303e 4e43 1d3e 7083 e33d 8dc6 5d3e
00000030: 1b62 073e 7bc3 b73d 14a9 f93d bb76 143d
00000040: 81ad 5e3d a48d 393e 09d5 173d 0c9f 8f3e
00000050: 454c 203e 1da4 483e 078b 403e 7e83 4d3d
00000060: 476f 1f3d 814c 093e e782 1e3e 4cc8 db3d
00000070: ebf2 f73d 2e9b 8b3e 2dba 583d 7879 323e
00000080: dde4 3d3e 427d 143e 2d51 003e bdd5 213e
00000090: 7923 d739 6124 863c 7e02 cd3d 007e 5c3c
000000a0: 88ae 4b3e cf69 003d 4c46 3fbd 77d3 ffbc
000000b0: b3f6 583e 94b9 fb3d fee0 b73d 1252 d43c
000000c0: a7aa 3d3e 9917 1d3e 69d8 ec3d 25ce e03d
000000d0: 8aac 5cbe 1496 2d3e 1f02 1c3e 423b 873e
000000e0: 8575 f73d b923 4ebc d39d db3d b13d 823e
000000f0: aaf2 b63d 5a02 2f3e 8ed3 fd3d a99b a93d

fc.6.weight f4 [6, 64]
-5.2638674 -3.6109643 0.2876806 0.19883795 -1.6667917 -1.6632073 0.25474882 0.2971506
0.20988293 -0.19006379 -0.31078234 -0.28024584 0.0513618 0.14889732 -0.451155 -0.35273418
0.16401705 -3.093722 -0.106318034 -2.0726442 -0.3212103 -0.26487327 -0.70130557 0.16555499
0.2451923 -1.1040795 -2.983942 0.40207827 0.31275398 -4.2551694 -1.0249156 0.22600622
-1.1083616 0.2567958 -0.84236425 -2.5483384 0.05545057 0.14363557 -0.3274521 -0.013202814
0.13245021 -1.2103038 -0.060191296 0.114984564 -1.8855611 0.22846739 -0.9085259 0.18035056
0.16242611 0.12293368 0.14071384 0.26013863 -0.32739487 0.08407259 -0.60729337 -0.17894353
-0.6376919 0.04076725 0.10966179 -0.42830682 -0.40426847 0.06607259 0.13660568 -1.1652398
0.005455791 -0.0045706225 0.1107044 0.04578537 0.17037907 0.10601222 -0.03681598 0.11840439
0.09414401 -0.14847039 -0.2546583 0.08007931 0.029088944 0.06304209 0.061879102 -0.009786445
-0.18488687 0.06810827 -0.32186797 0.112259194 0.08548704 -0.08608824 0.0023588962 0.057154316
-0.08349774 0.15015188 0.19728899 0.18534742 0.14837748 0.02977671 0.091215305 -0.10445813
0.15003474 0.13357833 0.13867603 0.09191864 -0.0038517024 -0.088764206 0.12187083 0.010088815
0.0004237467 0.03418489 0.13570607 -0.12414096 0.13947853 0.102403834 -0.06469714 0.045280315
0.05143119 -0.22634335 -0.1994854 0.03519966 -0.19805656 0.025886925 0.08242821 -0.02962239
-0.10500353 -0.04534313 -0.114048146 0.10541079 -0.13169271 -0.30919483 -0.015277079 -0.1805226
0.10564114 0.09242828 0.05440646 -0.06271159 0.13145882 0.09139239 -0.1613226 -0.09622296
-0.14205211 0.02289129 0.005490653 -0.2390879 -0.1701946 -0.13836433 -0.14706449 0.14573115
-0.00832111 0.09051273 -0.12081058 0.070761435 -0.17443919 -0.28367245 -0.15360597 0.06590518
-0.20769092 0.15921032 0.14938295 0.154955 0.12168203 -0.014506438 0.072619155 -0.50419986
0.119590074 -0.2607305 -0.08635946 0.09179602 -0.6668281 0.094933994 0.13047509 0.14490114
-0.2369279 0.09833766 -0.5742355 -0.011382249 0.10145054 0.11307414 0.12820911 -0.12527193
-0.051278565 0.008425602 -0.17412461 -0.09467405 0.24383622 -0.19864766 -0.103372134 -0.05569654
0.020706078 0.08937018 0.06119149 -0.22973886 0.09430246 -0.26330942 -0.34022182 0.06288061
-2.5181797 -2.6726317 -0.7890995 0.18881236 -0.967982 -1.8109164 -0.010761292 0.12419554
-0.44280463 0.13385157 0.040235996 0.11436944 0.073646605 0.07182279 0.107303746 -0.85125047
0.08014721 -2.796663 -0.22896974 -1.3845419 0.086261645 -0.0033917227 0.09137192 -0.46561363
-0.35390264 0.12026399 -0.6976411 -0.98583204 -0.29571304 -3.15936 0.14545919 0.15929948
0.23690206 -0.303249 0.18829922 -2.7101176 0.09372169 0.033776443 -0.6756425 -1.2612725
0.050071776 -2.0360172 0.18868704 0.09766937 -0.8693171 -0.6941193 0.1963398 -0.2952851
0.06922977 0.09582351 0.13829626 -0.26096094 0.13450067 -0.13592134 0.14633273 0.18641584
0.023297451 -0.77236843 0.20591727 0.10258049 -0.8717361 0.11428319 -0.0915227 0.0590888
00000000: 9a71 a8c0 0a1a 67c0 df4a 933e 2d9c 4b3e
00000010: 6e59 d5bf fae3 d4bf 706e 823e 2024 983e
00000020: 8deb 563e 15a0 42be dd1e 9fbe 627c 8fbe
00000030: c060 523d 8a78 183e cafd e6be 9399 b4be
00000040: 16f4 273e 8bff 45c0 45bd d9bd 34a6 04c0
00000050: ad75 a4be 789d 87be c388 33bf 3f87 293e
00000060: b113 7b3e 7a52 8dbf e8f8 3ec0 34dd cd3e
00000070: 4a21 a03e 592a 88c0 6f30 83bf 2d6e 673e
00000080: cbde 8dbf bd7a 833e 2fa5 57bf fa17 23c0
00000090: 2320 633d 3415 133e cda7 a7be 9e50 58bc
000000a0: 07a1 073e 3ceb 9abf 268b 76bd 077d eb3d
000000b0: 115a f1bf 5bf3 693e 2795 68bf d1ad 383e
000000c0: 0853 263e a7c4 fb3d 4a17 103e e430 853e
000000d0: 4da0 a7be 402e ac3d 9477 1bbf f93c 37be
000000e0: c73f 23bf 8ffb 263d 5c96 e03d 084b dbbe
000000f0: 47fc cebe 1151 873d 5ce2 0b3e 9426 95bf
00000100: 7ec6 b23b 29c5 95bb fdb8 e23d 7189 3b3d
00000110: da77 2e3e ef1c d93d 5acc 16bd 007e f23d
00000120: 93ce c03d 9f08 18be 9362 82be 9f00 a43d
00000130: f04b ee3c 361c 813d f174 7d3d 5357 20bc
00000140: fc52 3dbe 597c 8b3d e1cb a4be 26e8 e53d
00000150: d413 af3d 084f b0bd b697 1a3b a51a 6a3d
00000160: dd00 abbd 6ac1 193e 2006 4a3e b7cb 3d3e
00000170: 44f0 173e 49ee f33c 17cf ba3d 25ee d5bd
00000180: b5a2 193e c2c8 083e 1701 0e3e d73f bc3d
00000190: d86c 7cbb 02ca b5bd 6a97 f93d 8f4b 253c
000001a0: 522a de39 7505 0c3d 88f6 0a3e 9e3d febd
000001b0: 76d3 0e3e 1ab9 d13d ef7f 84bd da77 393d
000001c0: 83a9 523d 8dc6 67be e745 4cbe 852d 103d
000001d0: 57cf 4abe d110 d43c 1fd0 a83d a8aa f2bc
000001e0: 170c d7bd b8b9 39bd 1392 e9bd 9de1 d73d
000001f0: 74da 06be c94e 9ebe b74c 7abc ebda 38be
00000200: 625a d83d 0a4b bd3d 4fd9 5e3d ef6e 80bd
00000210: 249d 063e ef2b bb3d c031 25be 8b10 c5bd
00000220: 1c76 11be 8486 bb3c f0ea b33b 75d3 74be
00000230: 7e47 2ebe 61af 0dbe 1398 16be 8c3a 153e
00000240: 4455 08bc bd5e b93d 8a6b f7bd 5feb 903d
00000250: 30a0 32be 843d 91be e24a 1dbe 4cf9 863d
00000260: eeac 54be 0808 233e d8f7 183e 86ac 1e3e
00000270: 6e34 f93d 69ac 6dbc 5ab9 943d 3e13 01bf
00000280: a4eb f43d 787e 85be 3bdd b0bd 8dff bb3d
00000290: 3fb5 2abf c16c c23d 439b 053e f760 143e
000002a0: 3a9d 72be 4165 c93d 1901 13bf 9d7c 3abc
000002b0: 4dc5 cf3d 6a93 e73d 4049 033e 4947 00be
000002c0: 7909 52bd 890b 0a3c b94d 32be 78e4 c1bd
000002d0: 34b0 793e 4b6a 4bbe c5b4 d3bd 0e22 64bd
000002e0: cb9f a93c b707 b73d eea3 7a3d aa40 6bbe
000002f0: a621 c13d 7ed0 86be 8e31 aebe 8dc7 803d
00000300: db29 21c0 660c 2bc0 6d02 4abf 0758 413e
00000310: abcd 77bf 1ccc e7bf 2150 30bc 3b5a fe3d
00000320: 4ab7 e2be 6310 093e 80ce 243d 863a ea3d
00000330: 08d4 963d d417 933d 11c2 db3d 8deb 59bf
00000340: 3824 a43d 87fc 32c0 0b77 6abe ab38 b1bf
00000350: f2a9 b03d aa47 5ebb 3421 bb3d e964 eebe
00000360: ba32 b5be f74c f63d 9b98 32bf 7d5f 7cbf
00000370: b367 97be f432 4ac0 41f3 143e 671f 233e
00000380: 7496 723e 7443 9bbe 83d1 403e 9172 2dc0
00000390: 28f1 bf3d 2b59 0a3d e8f6 2cbf 6171 a1bf
000003a0: 1018 4d3d 1b4e 02c0 2d37 413e e106 c83d
000003b0: 918b 5ebf cdb1 31bf 4d0d 493e 9c2f 97be
000003c0: 56c8 8d3d 1e3f c43d 899d 0d3e ac9c 85be
000003d0: 8bba 093e f72e 0bbe 3fd8 153e cbe3 3e3e
000003e0: 4cda be3c f0b9 45bf fadb 523e b815 d23d
000003f0: 192a 5fbf 4e0d ea3d 4170 bbbd 1907 723d

fc.6.bias f4 [6]
-0.51323825 -0.062244512 0.2561481 0.18133283 -0.5193479 -0.37729117
00000000: 9563 03bf 1af4 7ebd d825 833e 50af 393e
00000010: fcf3 04bf 4f2c c1be
