artifacts/hgae_temporal.pth (torch, 144456 bytes, 7 tensors)

cnn.0.weight f4 [64, 50, 3]
00000000: e590 b43b 6bf9 583e c15a 29be 6387 4a3d
00000010: ae97 94be 05d3 033e 1e04 dd3a c769 1a3c
00000020: 9e6a b539 2fb5 11bc 87eb 443f 4459 2623
00000030: 4b48 283a db37 ddbb 7c1d c5bc 6992 b1bc
00000040: c2a9 ae39 7b5d 0580 304e ea3c 67f3 953a
00000050: ab29 a93e e47d 0cbd 4c3d 71bd 6509 253f
00000060: ffa1 d3bc 1b8a 283d c68f 1f3f 06ae 383d
00000070: 8420 11bd 6816 47c0 b3dd e53b c4b7 b13d
00000080: cb57 0580 7afc 31bd f798 373e 0e5a 0500
00000090: d565 77bd e335 b5bc 4761 0500 61ce 36bd
000000a0: bfe5 f83e b957 0580 ce13 57ba a7e5 ac3d
000000b0: 7e7a d73b 01dc afbb bd22 6abd f98c b3bd
000000c0: caaf 02ba 7df1 89be 0495 23be c34a 873c
000000d0: e799 0dbf 5d78 113e 2c21 c43a 06c3 1cbf
000000e0: 5d09 a8bd 700f 513d 09a8 053c a339 b8be
000000f0: 543f 18bd eeb7 6abe 3774 143e 9052 9a3d
00000100: f840 f0be 2105 19be 5e26 eabb 721f 46bf
00000110: 2f6c 113e 06bd a1bc c03e 37bf 5f90 5dbd
00000120: a851 203d 0d7b f03b 85f1 b8be b4c0 613b
00000130: b25c e43e 7961 1f1d 329a 013c 1ab1 89be
00000140: c5a9 d39d 3507 6f3d 7645 e1bd ebc1 0600
00000150: 0026 43bd 09c2 693e 51b3 339d 46e4 553d
00000160: 5a8e 0dbf 7eca 1cb7 a167 0cbb a2e7 873d
00000170: 2f78 c5be a537 a7bd a8ee f9bc c1e2 6cbe
00000180: c14a 6c3b 1424 25bc e3e3 99bb b4d3 c93b
00000190: 316c 47bf 3fd8 debe c00d a43c 2b63 3b3c
000001a0: fc72 613f 9a37 a6bc 9989 63be 6762 a73d
000001b0: 9b85 7c3c b63c 7a3d bf3c 143f 5a6a 153d
000001c0: f777 b0bd 0cb2 abbf 4b85 0ebd dbd2 efbe
000001d0: 6dd3 3cbc 748d 0500 22b1 0500 1bb8 0580
000001e0: 167b 2abd 2283 95ba be5b 0580 ac81 f43b
000001f0: 25b7 d63c 0afd 68bf aeec f63b 0395 4d3e
00000200: 8862 0500 9472 8b3d 4888 00bf 5e57 d5bc
00000210: c8b5 74bc 2b12 ccbd 4a95 2c3f ce44 1fbd
00000220: 4115 3f3d f7eb 163f d716 35bd 26d2 eabc
00000230: 6f59 0500 797e e83c d7a7 32bc a65a b9bb
00000240: 5129 aabc 2ea7 ae39 7b5d 0580 4c37 f43b
00000250: 1b33 18bc a913 febd 774b 173d 5083 0d3e
00000260: 8736 1ebe 639c c03c 2231 1abf fdb1 4e3e
00000270: 1c49 2abb 696c 5f3c 94a9 bfbc 8672 b43c
00000280: 38cd d3b9 b00a a3bd d4fc b63c ae86 1fbe
00000290: f8c7 ed3e 0259 2d3d 227f 183d 6a33 93bc
000002a0: 1233 32ba 9727 0c3e 1542 c8bd 463a 0ebc
000002b0: c354 e93d 30a8 9bbe c9b6 573d 4513 353d
000002c0: 221a 55bd 0cca 7f3c 3c35 a33e eb48 16bd
000002d0: 16dd 91bb 3f1d 1abe f8ce 77bc 8a9f 60bd
000002e0: 4e79 9cbe 2fe6 143e 54f2 203d 85f8 323d
000002f0: 022c 0e3c 9f0e b33c c857 233e 9af7 dcbd
00000300: 6080 04bd 37a9 92be be82 20be 6d7a 283d
00000310: 4ff3 9abe ce11 853e 571c 6a3c fdea 19be
00000320: 828a 583e 44d1 a73d 4c4f d73e 4070 24bc
00000330: cb11 1cbc 2d50 a8bd 47b1 453e b949 dc3c
00000340: 8948 35bf 9b2b 123d 1e10 25bc 4a9c ffbe
00000350: 1ec4 6c3e 815c e73c 2647 42be 5a9b 2e3e
00000360: 35b2 da3d f4f0 a43e 60c8 89bc 8924 23bd
00000370: e58b 0dbd b498 273e 7b76 863d 14de 2dbf
00000380: 8cca 053d fa1c a93c c309 4abe 2a59 81bd
00000390: a04a aa3c b3c1 77be f4d2 2c3e 4744 0b3c
000003a0: e569 1abe 22f9 4c3e e21e a33d d551 5ebe
000003b0: 6e7a 523e 7d26 17bd bfe6 393e 9864 96bd
000003c0: b787 883c 68be 3cbb 6e2b 833e 31d9 ed3d
000003d0: 5ddf d23d df0f 883e b1b3 383c 6e80 25bf
000003e0: 0377 ed3d 45e0 3abc a8cb 6cbe 4858 1a3e
000003f0: 7d50 cdbb 2573 6f3e 7f15 a8be e9cb 87bd
0.005510437 0.21188895 -0.16538526 0.04944552 -0.29021972 0.12873466 0.0016862189 0.009424633
0.00034602446 -0.008893295 0.76921886 9.017781e-18 0.0006419464 -0.0067510433 -0.02406191 -0.02167626
0.00033314346 -4.92712e-40 0.028601736 0.0011440337 0.33039603 -0.034299746 -0.058896348 0.6446746
-0.025834082 0.041147333 0.62328756 0.045087837 -0.0354314 -3.1107426 0.007014954 0.08677629
-4.90672e-40 -0.04345367 0.17929445 4.91483e-40 -0.06039985 -0.022120422 4.94074e-40 -0.044630412
0.48612782 -4.90646e-40 -0.000820455 0.0844224 0.0065758815 -0.0053668027 -0.057162035 -0.08767123
-0.0004985301 -0.26942053 -0.15974814 0.016515141 -0.5531296 0.14206071 0.0014963499 -0.6123508
-0.08204911 0.051040113 0.0081577385 -0.35981473 -0.03716977 -0.22921726 0.14497457 0.07535279
-0.46924567 -0.14943363 -0.007145687 -0.7739173 0.14201425 -0.019743454 -0.71580124 -0.05409276
0.039140373 0.0073388875 -0.36121765 0.0034447135 0.4460197 2.1093867e-21 0.007910298 -0.2689293
-5.6026773e-21 0.058356483 -0.10999577 6.20578e-40 -0.04764366 0.22827925 -2.3783157e-21 0.05221965
-0.55295336 -9.345471e-06 -0.0021424072 0.06635977 -0.38568255 -0.0816491 -0.030509308 -0.23133375
0.00360553 -0.0100794025 -0.0046963557 0.00615927 -0.7789946 -0.43524358 0.020026088 0.011437218
0.8806608 -0.020290185 -0.22220458 0.08173066 0.015412713 0.061093055 0.5790519 0.036478378
-0.086166315 -1.341371 -0.034795087 -0.46840557 -0.011525017 5.09921e-40 5.22721e-40 -5.25222e-40
-0.04162129 -0.0011406878 -4.92088e-40 0.007461747 0.026210377 -0.91011107 0.0075355386 0.20076375
4.94524e-40 0.068089634 -0.5020795 -0.026042636 -0.014935918 -0.09964403 0.674153 -0.038883977
0.04665113 0.58953804 -0.044211235 -0.02866466 4.9126e-40 0.02838062 -0.010904274 -0.005656558
-0.020771654 0.00033312425 -4.92712e-40 0.007452881 -0.009289528 -0.124060936 0.036937203 0.13819623
-0.15450488 0.023512071 -0.6023122 0.20185085 -0.0025983518 0.013636687 -0.02339629 0.022027265
-0.00040397956 -0.07961023 0.022337355 -0.1557872 0.46441627 0.042321213 0.03723062 -0.017968852
-0.0006797771 0.13686977 -0.09778229 -0.008680886 0.1139312 -0.30401754 0.052664552 0.04420783
-0.052026875 0.015612137 0.31876552 -0.036690634 -0.0044514043 -0.15050219 -0.015125029 -0.05483965
-0.30561298 0.14540933 0.039293602 0.043694038 0.0086774845 0.021857558 0.15951455 -0.10789414
-0.03234899 -0.28644726 -0.15674874 0.04113238 -0.30263755 0.25990146 0.014288983 -0.15031047
0.21146587 0.08194211 0.42052686 -0.010036528 -0.009525727 -0.08218417 0.19305907 0.026890622
-0.70813805 0.035686117 -0.010074643 -0.49923927 0.23121688 0.028242351 -0.18972453 0.1705145
0.106785215 0.32215083 -0.016819179 -0.039829765 -0.034557242 0.16366845 0.06565567 -0.6791699
0.032663867 0.0206437 -0.19730286 -0.06315835 0.020787537 -0.24194984 0.16877347 0.008500165
-0.15079458 0.20016912 0.07964875 -0.21710904 0.20554516 -0.03690194 0.18154429 -0.073434055
0.016666276 -0.0028800014 0.25619072 0.116136916 0.102965094 0.2657461 0.0112733105 -0.64649093
0.11594965 -0.011406009 -0.23124564 0.15072739 -0.0062656985 0.23383768 -0.328289 -0.0663069

cnn.0.bias f4 [64]
00000000: cd87 89bd 8b52 68bc 6de0 4cbd ccbe fdbb
00000010: 9eb8 a93c 5b1c d23d 6e8b 1ebe a49c cebd
00000020: d688 bf3d 204b a03d 957f 4d3d 1df3 163e
00000030: d612 2e3a 6052 75be 92cd 25be 7466 aabb
00000040: 198a 6e3d 931c 15bc f891 dfbd 060a 14be
00000050: 02d9 1f3d d0db 2bb2 ad17 c5bc c002 653d
00000060: 539c 79bc 3322 a3bc d451 d73c ccac 31bb
00000070: c804 803d 5af8 efbd 67a3 aa3d ebf7 18be
00000080: ed25 edbd 5db9 7cbd d396 d2bc f4a6 ca3d
00000090: e188 513d e082 0bbe cd0c ae3d a5e7 79be
000000a0: d563 81bd dbb4 f4bc c393 8bbe f91d c93d
000000b0: bfec 01a3 4807 3dbd 21ec 303e f4c6 1f3d
000000c0: 3f6c 3ebe 6231 833d fdf6 393e d1d8 01bd
000000d0: d3b3 f83d be17 f03d 81fc 2c98 2dbd 32bd
000000e0: 36f1 90bd 6f24 733d 1b1c 1abe 5c5c e13c
000000f0: 2f87 d0bd 84eb 76bd 8fe6 43bd 4f33 78bd
-0.06715355 -0.014179836 -0.050018717 -0.007743692 0.020717915 0.102593146 -0.15482876 -0.100884706
0.09352271 0.07826829 0.0501705 0.14741178 0.000664038 -0.23957205 -0.161917 -0.0052002016
0.05823717 -0.009101051 -0.10916513 -0.14456949 0.039025314 -1.000349e-08 -0.024059141 0.055910826
-0.0152350245 -0.019913768 0.026284136 -0.0027111052 0.06250912 -0.11717291 0.08331948 -0.14938323
-0.115794994 -0.061700214 -0.025706684 0.09895125 0.05115593 -0.13624144 0.08498535 -0.24404772
-0.063178696 -0.029871395 -0.2726117 0.0982017 -7.043237e-18 -0.046149522 0.17277576 0.039008096
-0.1859598 0.064059034 0.18160625 -0.031700913 0.12143674 0.117232785 -2.235796e-24 -0.043637443
-0.07077257 0.059360918 -0.15049784 0.02750986 -0.10182034 -0.0602832 -0.0478273 -0.060595807

cnn.3.weight f4 [128, 64, 3]
00000000: 1320 e0bd 682e 5bbe f5ae 09be 7164 823a
00000010: d983 2f3e 7e0c 00be 4f2b 83bc 0927 06bd
00000020: 17cd 1b3c 2b2e 603d b738 f6bd 2fa7 8bb2
00000030: 2183 563d 69ed bbbe 3b00 0fbe cbff ef3d
00000040: 3987 863d d216 50bd 0d19 223d 2337 44bf
00000050: ac4a 73bd 01d1 e03b d7a7 20bd 0ee7 6cbd
00000060: c771 fabd 9d8a d3bd 0e4a a2bd 98a9 ea3d
00000070: fcd5 06bd ede0 8dbb 970c e7bd 0f8c dcbe
00000080: f500 0cbe 75be b93a ed98 9dbd c288 ddbd
00000090: 7c8d 7bbc d626 b4bd 9e2c 3e3d 1475 c9bd
000000a0: e36d 25bf 4141 02be 029b 123e 0cde e0bd
000000b0: 1815 4ebc ee7c 56be 1ea2 21bc b0d9 46be
000000c0: 7d60 503e c81e aabc 2053 efbb b863 0500
000000d0: f431 10af ae3d 0600 c8a9 bb3c c65c 21bf
000000e0: 0f41 5bbd 3f57 303d 40ba 9cbe 094b 56be
000000f0: f667 f93c b47d f6bb a161 9bbc d3aa 0680
00000100: 9a6e 0500 5f76 0680 46a3 033d 7e55 bcbd
00000110: e89c 47be 0914 fcbb de6e 9d3d ccaf 21be
00000120: cac7 cfba 6c98 2ab8 5f69 0580 7e88 633d
00000130: 5cd6 81bd e47a efb8 d380 ceba c11e 08bf
00000140: 9389 0fbd b21d 123b ec34 cabd abae b1bd
00000150: 4abc 383c 6e11 e83d 3c23 9cbd 250c 83bd
00000160: ff40 54bf fb01 273b b9fb 433d 16a1 98bb
00000170: ff60 5dbd 156c fe3b 7c8a c5bd 20ec 153d
00000180: 8f84 a4bc a02e 34be 39b1 14be ead6 823d
00000190: a6fb 27bc 4095 6cbc c393 6c3d d90c 39bd
000001a0: 8702 c237 8d8b efbb 0b33 2cbc e960 693b
000001b0: cf7e 04bd 1cf3 9fbc 272b 34bc f696 ad3b
000001c0: 5857 41bf 571d b1bd c5e8 37bb f6d1 54bd
000001d0: 6bc3 12b8 18d4 f23c 62fe fcbe 520a 92bd
000001e0: 541e 203d 13fe 983d 3c6b 07be 1bba 9f3c
000001f0: 8764 79bf d2ec 81be 55a7 95bd 0ada 05bf
00000200: 7525 92bd 2b5b 003e 3309 9f3e e301 75bd
00000210: 6365 0580 7967 0580 1eaf 0500 7e09 833d
00000220: 7669 fcbe 8833 04be 3bff 56bc afcb 5d3c
00000230: 3533 2fbc 3c9f 403c 7d4c b1be a5db 9fbe
00000240: f99f 0b3e dd23 27bf 21e9 dfbc 99f5 b0be
00000250: b15d df3d b209 24bd ac43 3f3d 5aa8 c33b
00000260: df1b a8bb 6bcc 3fbd 9de3 7bbe d615 6fbe
00000270: 8a2e 3cbd 2a43 3cbc 4a72 21b3 2423 c8bb
00000280: 21dc 2dbe 3d74 6bbe 7f5c 0580 b95b 0580
00000290: e89a 0580 140c 15be c92c 1fbf 2576 fdbd
000002a0: fec8 503e 8302 4fbf 10c3 86bd a60d dabc
000002b0: 9142 843c 58e3 f2b6 4a3c c9bd e463 36bf
000002c0: cc28 c3bd c2a8 c9bc 6df9 003e 6258 2b34
000002d0: 495a e93c 90f7 373c 40b6 34be 5fc3 3bbd
000002e0: 6f80 d63c c7b2 14be 967a 5ebd a192 be3d
000002f0: 5d23 ccbc 7ff4 c8bd 5daf 40be 8223 01be
00000300: c218 ceb8 5905 313a 105c 1ebe 4e5a 41be
00000310: 218d 3dbf 3115 a3be cffd c9bc b3e0 e03c
00000320: ae44 0600 b6cf 09bd 030d ad3d f56c f9bc
00000330: 45ae a6bc f865 36be c178 b8be 2743 453d
00000340: c247 843f 510f ef3c 6e8a 39be 502e 1dbf
00000350: dd3d e3ba 757e 93bd ad8b 9fbc 95fc 8dbd
00000360: 474b 0fbc 8890 8bbd edd9 81be 4478 38bd
00000370: 351a c0be fef0 79bd 1268 11be f4af 2abb
00000380: 7823 18be 20ba 66bc b07e 95be dbfc 74be
00000390: 57b8 00be 048f 28be 670f 80bd f4fd 433b
000003a0: 5ec3 71bf f6dd eabd ebb3 e5bd 7097 afba
000003b0: 40e7 a0bd 008f 2b3a b41a b2bc bcf2 79be
000003c0: e655 efbc 6831 38be b3a2 abbd c0e8 623b
000003d0: 3c6f fb3a 2a7d 0500 72a9 07be afca f5bd
000003e0: 8c6f c3bd f504 913b a0d9 a4be 5b7f 5ebe
000003f0: 750b d33c c031 3b3e fef6 01bd 5f61 0500
-0.10943618 -0.21404421 -0.13445647 0.0009948147 0.1714014 -0.12504765 -0.016011862 -0.03275207
0.009509346 0.05473153 -0.12022536 -1.6257756e-08 0.052371148 -0.36704567 -0.13964932 0.117187105
0.065687604 -0.050803013 0.03957467 -0.7664663 -0.059397385 0.0068608527 -0.039222565 -0.05783754
-0.122287326 -0.10329173 -0.07924281 0.11458129 -0.032918915 -0.0043297918 -0.11281698 -0.43075606
-0.1367224 0.001417114 -0.07695184 -0.108171 -0.015353557 -0.0879647 0.04642927 -0.09836784
-0.646208 -0.12720205 0.14316943 -0.10979852 -0.012578271 -0.20946094 -0.009865312 -0.19418979
0.20349307 -0.02076663 -0.0073036104 4.9495e-40 -1.311447e-10 5.7314e-40 0.022908106 -0.63032186
-0.05352884 0.043051954 -0.30610847 -0.20927061 0.03044508 -0.007522309 -0.018967452 -6.12293e-40
4.98854e-40 -5.93477e-40 0.03213813 -0.09195994 -0.19493449 -0.007692818 0.07687162 -0.15789717
-0.0015852388 -4.0673112e-05 -4.96978e-40 0.05555009 -0.06339714 -0.00011419298 -0.0015754945 -0.53171927
-0.03504331 0.0022295532 -0.09873375 -0.086758934 0.01127536 0.113314494 -0.07623908 -0.06398801
-0.82911676 0.0025483358 0.047847483 -0.004657875 -0.05404758 0.007764349 -0.096455544 0.03660214
-0.02008274 -0.17595911 -0.1452073 0.06388648 -0.010252869 -0.014439881 0.057758104 -0.045178268
2.3127779e-05 -0.007310337 -0.0105102165 0.0035610741 -0.032347497 -0.019525103 -0.010996616 0.005297537
-0.755239 -0.08648174 -0.0028062325 -0.051958047 -3.499111e-05 0.02964215 -0.4941283 -0.07130875
0.039091423 0.07470336 -0.132245 0.019497922 -0.9741902 -0.25375992 -0.07307307 -0.52285826
-0.071360506 0.12534778 0.31061706 -0.059816252 -4.95548e-40 -4.96296e-40 5.21998e-40 0.06398295
-0.4929921 -0.12910283 -0.013122375 0.0135373315 -0.010693361 0.011756714 -0.34628668 -0.31222263
0.13635243 -0.652891 -0.027332844 -0.34562376 0.10906542 -0.04004831 0.046695396 0.005970997
-0.0051302756 -0.046825808 -0.24598546 -0.23348173 -0.04594282 -0.011490623 -3.758968e-08 -0.0061077047
-0.16978504 -0.2299356 -4.92359e-40 -4.92081e-40 -5.14747e-40 -0.14555389 -0.6217771 -0.1237605
0.20389172 -0.8086321 -0.06580174 -0.026617836 0.016145023 -7.2386283e-06 -0.09825952 -0.7124617
-0.09529266 -0.024616603 0.12595148 1.595777e-07 0.028485434 0.011228457 -0.17647648 -0.045840617
0.026184289 -0.14521323 -0.054316126 0.09305311 -0.024919206 -0.09812259 -0.18816896 -0.12611201
-9.827457e-05 0.0006752811 -0.15464807 -0.18882105 -0.7404347 -0.31852105 -0.024657158 0.027450895
5.7565e-40 -0.033645354 0.084497474 -0.030447463 -0.02034677 -0.17812335 -0.36029628 0.048159745
1.0334399 0.029182108 -0.18119213 -0.6139879 -0.0017337162 -0.07201854 -0.019475782 -0.06932942
-0.008745975 -0.068146765 -0.25361577 -0.04503657 -0.37519994 -0.061020844 -0.14199856 -0.0026044818
-0.1485728 -0.014082462 -0.29198217 -0.23924582 -0.1257032 -0.16460806 -0.06252938 0.0029906007
-0.9443873 -0.11468117 -0.11215957 -0.0013396572 -0.078566074 0.0006544441 -0.021741249 -0.24409002
-0.029215764 -0.17987597 -0.08380642 0.0034623593 0.0019182931 5.04078e-40 -0.13248232 -0.120015495
-0.0954276 0.0044256398 -0.32197285 -0.2172827 0.0257623 0.18280697 -0.03172969 4.94108e-40

cnn.3.bias f4 [128]
00000000: 4267 b23e 6c1c 0b3e 9040 033e aa0c 1a3e
00000010: 3600 873e b80b d53e d04a a13e 91e4 123e
00000020: 00b8 34be 9a0c b83d f54d 1b3d 6a00 463e
00000030: 6d62 9e3d 48bd c33e 01e8 5f3d 548f 9f3d
00000040: de64 30be ce82 b13e 0f30 0a3e ac97 b3bd
00000050: c5a6 59be c933 b33d 97fd 38be e327 b03e
00000060: af95 5dbd 63c2 013e 3d8d 763e 1ecd 1fbb
00000070: b56d 943d 5235 e6bc fcff c43d f0db eabd
00000080: c0e3 093e 32ae 333e 932b adbd be98 053d
00000090: 7066 dc3d fcfd b13d 6166 8b3c 983a 8fbd
000000a0: 9fbe 58bd 959f c8bd fd2d f23d 82d0 02be
000000b0: bca4 f03d ee2e 793d c7ca 0b3e 3d95 8d3b
000000c0: 5580 ed3e e400 33be e1a2 b23c ffa8 613d
000000d0: 900d 0bbd fa43 f43d 32bd 883d 82aa 903e
000000e0: 3cb7 6a3e 8d7d 70be 202a 043e 3cba 33be
000000f0: 504f 6bbd 8ced acbd c597 e73d bc69 963e
00000100: bac8 813c c6fb 263e d364 05be 478d b93e
00000110: 2904 a6bd ab0a 2f3c 12a3 e8bd f666 283d
00000120: 4612 e0bc 87cd bb3e 00c5 5b3e 6041 b13e
00000130: 4fd9 c43e b7df cd3e 2d89 e83d 0f09 8cbc
00000140: 8604 ed3c 20bd 783e d1e3 0c3e e319 f53c
00000150: cd2d 053e 8c4f af3e ad44 413d 7ec9 4b3e
00000160: 9ef0 af3e 39f5 c53d 9fd1 bf3d 7bf9 9bbc
00000170: 8ba8 193e d863 b93e 1f83 09be 03f3 683d
00000180: fb31 9abb da4d 183e 5a10 b73e fa34 5b3e
00000190: 1338 e6bd 03c3 aa3e 850a e93d 19ae c73e
000001a0: 60e0 f43e 73d4 27bc 22fd 63bd 1e22 5f3e
000001b0: aa10 823d 472f 073e 67a0 8b3d e4db b43d
000001c0: fcaf 853e 098c f03d da53 363e 7b9f 703d
000001d0: 220d f93d 5af5 bd3d e623 133e dbcd ba3d
000001e0: cf2f 1c3d ad07 3b3e d91c 043b 2da8 393e
000001f0: 7051 7b3e 1873 b83d 1d0f d83d 23f5 9d3d
0.34844404 0.13585061 0.12817597 0.15043893 0.26367348 0.41610503 0.3150239 0.14345004
-0.17648315 0.089867786 0.037916142 0.19336095 0.07733617 0.38230348 0.054664616 0.077910095
-0.17225978 0.3467011 0.13494895 -0.087691635 -0.21255024 0.087501116 -0.18065487 0.3440543
-0.054097828 0.12671809 0.24077316 -0.0024383734 0.072474875 -0.028101597 0.09619138 -0.11467731
0.13465786 0.17546919 -0.08455577 0.03261637 0.10761726 0.08691022 0.017016592 -0.06993598
-0.052916165 -0.09796063 0.11825178 -0.12774852 0.117501706 0.06083577 0.13651572 0.004320769
0.46386972 -0.17480808 0.021806182 0.055092808 -0.03394848 0.11927028 0.06676711 0.28255087
0.22921461 -0.23485394 0.12906694 -0.17551512 -0.057448685 -0.08443746 0.113082446 0.29377544
0.015842784 0.16306981 -0.13026743 0.362406 -0.08106262 0.010683696 -0.11359228 0.041113816
-0.027352463 0.36680242 0.21461868 0.3462019 0.38447043 0.40209743 0.11354289 -0.017094163
0.028932821 0.24290895 0.1375878 0.02991957 0.13005753 0.34240377 0.047184635 0.19901082
0.34363264 0.09665913 0.09366154 -0.01903986 0.150057 0.36208987 -0.13428925 0.05687238
-0.004705665 0.14873448 0.35754663 0.21406928 -0.11241164 0.33351907 0.113789596 0.39000013
0.47827435 -0.010243523 -0.055661328 0.21790358 0.06350835 0.13201629 0.06817704 0.08831003
0.26110828 0.117454596 0.17805424 0.058745842 0.12160708 0.09275313 0.14369163 0.09121295
0.03813153 0.18264647 0.0020158796 0.1813056 0.24542785 0.090063274 0.10549758 0.07712772

attn.attn.weight f4 [1, 128]
00000000: 3109 cf3d c278 b03f 65fc 7b3c 2de9 ae3f
00000010: 5665 69bd f2b2 cc3e 8bb6 4fbc 4a02 a63f
00000020: a975 9bbd e046 03be cebb 1dbc 2f29 ac3f
00000030: 80ed ba3e dc79 8f3f 4463 733c 6b79 d53b
00000040: 8fab f53e 7b1d 153f 5df3 273f 92ec ee3e
00000050: 7bda 2a3e c1f9 0240 e824 bcbd 394f 233f
00000060: 7751 8bbd cac9 dbbe 5bc0 223f 8dd7 c9bd
00000070: 961d 81be 8682 cebd 14c3 dfbd 1d9d 683b
00000080: 20fe d03b bacd 313f b0a2 5e3b 81c5 50bd
00000090: 80ce 50bd a3d2 bfba 167d bfbd 08a7 89bc
000000a0: 7300 1bbe 8fd5 62bc 7c01 02bd 73bf bf3e
000000b0: 43de 093c dceb a5be 7f4f 18be 4685 b6bd
000000c0: b89b 443f 1cc4 a43e 6f93 82bc 0f5e 5bbe
000000d0: 28e5 8ebc c67e 003f 87a7 473f 8bdd 823f
000000e0: 1dac 173e 02cf 5bbe 2317 d8be 1173 02be
000000f0: d610 1bbe 9912 9d3e 2c6e a5be f930 0a3f
00000100: 2693 6cbe 80a2 b5be b0fc d3bd 4fbf 7e3f
00000110: 4567 82bd 2579 e53e f145 82bd 5a1f 2f3e
00000120: d020 13be c963 ad3d 4870 483f 1c6d 1a3f
00000130: bd72 8b3f 58b3 aa3e 4ae7 303e 480f 34be
00000140: b1fa 2cbe 3059 cd3e 66b8 dd3e c3f0 0d3f
00000150: b22b e23d ceaf 3e3f 6182 83bd 97e0 813f
00000160: a343 8c3e 669a bfbd db54 32bf 5e98 523d
00000170: 67a8 8c3e 37d5 6c3d 84c1 b3bd ee83 503c
00000180: 72c1 31be 01a5 05bf 1da2 b23d 9095 583e
00000190: f664 c8bd 04a9 033f cf9e 973d 706a 293f
000001a0: 3be8 463f cd81 d3bb 767a 00bc 12b4 4cbe
000001b0: 42bd b0bd bc80 5ebd 8ed6 4f3d cc18 8dbe
000001c0: cb4b ccbc 458f 8bbe 79b6 3ebe 5299 ea3f
000001d0: f608 4b3f 6fb7 fa3d b35a efbc 9645 87be
000001e0: 314c 19bc 3ff9 913f 6747 92bd 2917 a63f
000001f0: cad5 853e 815a 893b 44a8 943d 0af8 a3be
0.10109175 1.3786852 0.01538 1.366491 -0.056981407 0.39980274 -0.012677799 1.2969449
-0.07590801 -0.12820005 -0.009627296 1.3450068 0.36509323 1.1209064 0.01485521 0.0065147183
0.4798245 0.5824811 0.6560572 0.46664864 0.16684906 2.0464938 -0.09186727 0.6379276
-0.068026476 -0.4292739 0.6357476 -0.09855566 -0.25217885 -0.10083489 -0.1092588 0.0035494037
0.0063779503 0.6945454 0.003397148 -0.050969604 -0.050978184 -0.0014634918 -0.0935003 -0.01680328
-0.1513689 -0.013844862 -0.031739697 0.37450752 0.008414808 -0.3240651 -0.14874075 -0.08912139
0.7680011 0.3218087 -0.015939442 -0.214226 -0.017443255 0.5019344 0.7799 1.022386
0.1481175 -0.21465686 -0.42205152 -0.12739207 -0.15143141 0.3067825 -0.32310617 0.53980976
-0.23103008 -0.3547554 -0.10350931 0.99510664 -0.06367353 0.44818988 -0.063609965 0.17101803
-0.14367986 0.08466298 0.7829633 0.6032274 1.089439 0.33339953 0.1727573 -0.17583954
-0.16892506 0.40107107 0.43304747 0.554455 0.110434905 0.74487007 -0.06421352 1.0146664
0.27395353 -0.09355621 -0.6966073 0.05141484 0.2747223 0.057820525 -0.087771446 0.012726767
-0.1735895 -0.522049 0.08722327 0.21150804 -0.09784882 0.5142977 0.07403337 0.66178036
0.77698106 -0.0064546824 -0.007841697 -0.19990566 -0.08629848 -0.05432199 0.050741725 -0.2755798
-0.024938485 -0.27257743 -0.18624295 1.832804 0.7931055 0.122420184 -0.029218053 -0.26420277
-0.009356544 1.1404189 -0.07142525 1.2975818 0.2613967 0.004191697 0.072586566 -0.32025176

fc.weight f4 [6, 128]
00000000: e1ea 883e 8f6e 2a3d 7a76 263f 7b36 463d
00000010: 7df7 1dbe 8ff3 6e3e cb19 cebf bef6 073d
00000020: 472a 7e3e 869e 103e 3ef5 69bf 4ea6 283d
00000030: 5bd0 3dbf b3a3 7b3d 634e 6abf ce80 86bf
00000040: 46ed d6bc c3b7 2b3d ad20 f73c b04f 1e3a
00000050: a9e3 313e d480 a8bc 7eb4 9abe b2d5 ad3e
00000060: 2d2f f2be 28eb 8dbe fd69 113e 8a3c 083e
00000070: df76 0a3d c25e 0d3f fcd7 9f3e c2a3 e1be
00000080: ef63 69bf 5393 553e c7f3 08bf 9b1b 78bf
00000090: ebe3 f6be ff18 7dbf b443 41bf 1dc9 44bf
000000a0: e6e6 8fbf a6fc 553e 2f9b 96bd 6ebd 273e
000000b0: 9055 80bf 9e53 50be 8ce2 893e 2b8f 04bf
000000c0: 609d a73c 1a60 d13d 8761 72bf e242 12bf
000000d0: dc07 a0bf 875a 9fbb b684 2c3e dddf f73d
000000e0: fd61 5c3e 53b1 013e cfc4 f9be 0036 1a3e
000000f0: ae10 85bf da10 0c3e e600 acbe 1264 afbf
00000100: 8aa5 933e aef9 6fbe 9633 d6be 52e5 c83d
00000110: 1c22 5fbf fa70 1d3e b544 703e 50a2 81bf
00000120: 2f27 b4bd 467b c63e 4d7a ed3d 957b cd3d
00000130: 4f57 c33d 0e6d 873e 6569 dabd 5705 85bf
00000140: 7b01 7ebe 8e6a 1e3e b12f e03e 4c26 df3d
00000150: b7c0 81bf c19f 2b3e e907 eebe be02 353d
00000160: 5abe 88bf 9888 91bf 3a8e e6be b1d0 6ebf
00000170: 6393 a6be 880e e03d 2655 0bbf c705 54bf
00000180: 2cae 84bf e986 06bf 50a0 4a3e 4366 ad3e
00000190: b380 d73e 3871 a23d 0245 bbbd 3f9b e13d
000001a0: 39e3 213e ece9 92bf 14d7 7abf 12c3 5abf
000001b0: f6a9 cebd 2467 713e f5a8 bf3d b08d 9fbd
000001c0: 1368 c9bd f6d9 953e a847 96bf 7ef7 113d
000001d0: 7d1a d33d f915 73bf 4bbe f4bd cc4a 7fbe
000001e0: 9915 71bf 9bb4 a93d d019 263f b636 103d
000001f0: 3cf7 a93e 4a75 84bf ed7d e7bd c934 04bf
00000200: 959e 3bbf d566 5f3d 23c2 d0be 140f ef3c
00000210: d703 45bf cf5b 7dbf ad1b 6f3d e394 313d
00000220: 2158 213e 6f30 dc3d e9bb 9c3d 52f0 2d3d
00000230: 06ff 06bf bd9e acbb 4fdf 7a3d 1a84 f13c
00000240: f766 20bd ddc9 353e 4e6f b23d 185c 9ebb
00000250: cf43 35bb a270 dd3c a609 283e 7270 b7be
00000260: cb6f b63d 69c3 ea3e 11a4 19bf e3bb 1c3e
00000270: 84c6 af3e afeb 243e 4a64 5ebf a2c2 d03d
00000280: 2c0e cd3d cb04 b73d 1561 073e 16d2 b03d
00000290: 1fc0 453e 1aa4 293d 3a2f bd3d 0c6d 823d
000002a0: 4a14 2c3d 75ed 6b3b 509e 05be 62a5 bdbc
000002b0: 0867 9f3d f729 e6bc ceaa 1a3e 2ad1 203e
000002c0: eb62 14bf 65cf 033d b9f1 733d d3b9 f8bd
000002d0: fcbd 953d cd65 953c c625 e63d 5661 afba
000002e0: 0a90 a3be 83c5 773d 4dbc b93e f981 9cbc
000002f0: 0159 933d 8a28 0bbc 3af8 f5be af04 f2be
00000300: f9bc 1abf 52d8 1dbf da3b 523e 3dd7 29bd
00000310: 2596 ff3d 34e3 80be 5e6c f63d cb6b 14bf
00000320: 27a2 2b3e 1c86 82bf ec33 843d 85c2 14bf
00000330: 43ca 5c3d 3494 7abf 7e70 db3c cc63 573d
00000340: b346 6e3e 0a4d 2cbf 85e4 603e 2298 be3d
00000350: c4fa 2dbe fe3c 8a3d af3f 3e3e 7eb6 f73c
00000360: ff4d e9be 2d98 303d e231 d83e f0e0 96bd
00000370: 1ac2 fbbd 7fc0 edbe 26c3 f73d 0080 a13d
00000380: 9e22 453e 7688 863e b4d9 3fbf b52a 89bc
00000390: 321d 1a3e 250b 1fbf 18f8 6abd 7893 efbe
000003a0: 8a66 75bf 6a9a 3d3d be85 c73d 63a8 8bbd
000003b0: b680 1a3e 43d1 ca3d 0e24 813d 4b9d b53e
000003c0: 03e7 7fbf 929e 66bd 3730 243e 78b7 503d
000003d0: 5924 363d 31cf aebe 3b14 c0bd 191e 95be
000003e0: 4869 f93d 4c33 9f3d d970 85bd ee45 1b3d
000003f0: cb27 11bf 4658 7f3d 03b3 2f3c f730 08be
0.26741698 0.041609343 0.6502453 0.0483918 -0.1542644 0.23335098 -1.6101621 0.033194296
0.24820815 0.14122972 -0.91389835 0.041174226 -0.7414605 0.061435413 -0.9152586 -1.0508058
-0.026236188 0.041923296 0.030166948 0.0006039096 0.17372002 -0.020569243 -0.3021583 0.339521
-0.47301617 -0.27718472 0.14200588 0.13304344 0.03380477 0.55222714 0.3121947 -0.4407025
-0.9116811 0.20856981 -0.53496975 -0.9691712 -0.48220763 -0.98866266 -0.7549393 -0.76869375
-1.124234 0.20897159 -0.07353818 0.16380855 -1.0026112 -0.20344397 0.26930654 -0.51780957
0.020460784 0.10223408 -0.94680065 -0.57133305 -1.2502398 -0.0048630866 0.168475 0.121032454
0.21521755 0.126653 -0.48782966 0.15059662 -1.0395715 0.13678303 -0.33594435 -1.3702414
0.28837234 -0.23435089 -0.41836232 0.098093644 -0.8716142 0.15375128 0.2346371 -1.0127659
-0.08796536 0.38765925 0.11595593 0.10033337 0.09538137 0.2645039 -0.10664634 -1.0392255
-0.24805252 0.15470335 0.43786386 0.108959764 -1.0136937 0.1676016 -0.4649041 0.04419207
-1.0683091 -1.136981 -0.45030385 -0.9328719 -0.32534322 0.109402716 -0.544268 -0.82821316
-1.0365653 -0.52549607 0.19787717 0.33867082 0.42090377 0.07931751 -0.091440216 0.11015939
0.15809335 -1.1477637 -0.97984433 -0.85453904 -0.10091011 0.23574501 0.09358398 -0.077906966
-0.09834304 0.29267853 -1.1740618 0.035636418 0.103077866 -0.949554 -0.11950358 -0.24930876
-0.9417358 0.08286401 0.64883137 0.035208426 0.33196437 -1.0348294 -0.11303315 -0.51643044
-0.7328885 0.054541428 -0.40773115 0.029181994 -0.76958984 -0.98968214 0.058376003 0.04335488
0.15756275 0.107514255 0.076530285 0.042465515 -0.52732885 -0.0052679465 0.06124812 0.029481936
-0.039160695 0.17752786 0.08712636 -0.004832756 -0.0027658825 0.027031247 0.1640993 -0.35827976
0.089080416 0.4585221 -0.6001597 0.15306048 0.34331143 0.16105531 -0.8687178 0.10193373
0.10012469 0.08936461 0.13220628 0.08633821 0.1931157 0.041416265 0.092375234 0.06368455
0.042011537 0.003599969 -0.13048673 -0.02315015 0.077833235 -0.028096182 0.1510422 0.1570479
-0.57963437 0.03218021 0.059556697 -0.12144818 0.07311627 0.018237019 0.112376735 -0.0013380449
-0.3194583 0.060491096 0.36276475 -0.019104945 0.071947105 -0.008493552 -0.48040944 -0.47269198
-0.604446 -0.61658204 0.20530644 -0.041465033 0.1247981 -0.25173342 0.12032388 -0.5797698
0.16761075 -1.0197177 0.06455216 -0.58109313 0.05390383 -0.9788239 0.026787039 0.052585408
0.23269157 -0.6730505 0.21962173 0.09306361 -0.1699019 0.067499146 0.18578981 0.030238386
-0.4556732 0.043113876 0.42225558 -0.07367122 -0.12292881 -0.46435925 0.120977685 0.07885742
0.19251487 0.26275986 -0.74941564 -0.016743997 0.150502 -0.6212638 -0.057365507 -0.46792197
-0.9585959 0.04628984 0.09742306 -0.068192266 0.15088162 0.09903195 0.06305705 0.35471568
-0.9996187 -0.05630357 0.16034018 0.05095622 0.044468258 -0.3414245 -0.09378859 -0.29124525
0.12178284 0.07773456 -0.065156646 0.037908487 -0.56701344 0.062340043 0.010723832 -0.13299929

fc.bias f4 [6]
00000000: 7267 223f 4ce6 f5be 5158 93bb 252d 4dbe
00000010: 6a62 c93e 11fb 643f
0.63439095 -0.48027265 -0.004496612 -0.20036753 0.39332896 0.89445597
