artifacts/hgae_gating.pth (torch, 76784 bytes, 6 tensors)

fc.0.weight f4 [128, 76]
0	0xbe71c46b	-0.23610084
1	0xbdf7f8f4	-0.12108031
2	0xbe376b77	-0.17912088
3	0xbdc6777d	-0.09690759
4	0x3f3f55f9	0.7474056
5	0xbe8fb033	-0.28064117
6	0xbba98dc4	-0.0051743705
7	0x3cf2ef5b	0.02965515
8	0x3e014b21	0.12626316
9	0x3dbbd8cf	0.09172212
10	0xbe534ff6	-0.20635971
11	0x3e38858e	0.18019697
12	0x3d3a69fa	0.045511223
13	0xbd8a1de5	-0.06743983
14	0xbe1dcf0a	-0.1541101
15	0x3b0eba3e	0.002177849
16	0xbd4070e3	-0.046982657
17	0x3d355ef4	0.044280007
18	0xbe1ef327	-0.15522443
19	0x3d6900c0	0.05688548
20	0xbdff095b	-0.12452956
21	0xbb943e80	-0.004524052
22	0x3d50d366	0.050982855
23	0xbda995e8	-0.082805455
24	0xbbe9f647	-0.0071399543
25	0xbd6ab400	-0.057300568
26	0x3dbd2b79	0.092368074
27	0xbe22aa69	-0.15885319
28	0xbd804f5b	-0.06265136
29	0xbbb5ab6e	-0.0055441177
30	0xbdb9b548	-0.0906778
31	0xbe03b0fe	-0.12860486
32	0xbdc802c0	-0.097661495
33	0x3d11a3d1	0.035556618
34	0xbdcbed5c	-0.09957382
35	0xbd947ceb	-0.07250389
36	0xbc989f25	-0.018630574
37	0xbd8db407	-0.06919103
38	0x3cfd66b5	0.030932764
39	0xbdd87f36	-0.105711386
40	0xbc7b9a66	-0.015356636
41	0xbd7e33b2	-0.06206102
42	0xbde09612	-0.10966124
43	0x3d4a4105	0.049378414
44	0xbd50f116	-0.051011167
45	0x3d5e731f	0.054309007
46	0xbd3e5a6c	-0.04647295
47	0xbbce7dac	-0.0063016023
48	0x3dba90b5	0.09109632
49	0xbd825f2f	-0.06365811
50	0xbda5b392	-0.08090891
51	0xbcc108cb	-0.023563763
52	0xbd1e4ced	-0.03864758
53	0x3ca7418d	0.020417
54	0xbd3b7995	-0.045770247
55	0xbdf240de	-0.11828779
56	0x3dbeb832	0.09312476
57	0x3e04f6cc	0.1298477
58	0x3cdf7522	0.027277533
59	0x3e08f7e8	0.13375819
60	0xbe08058f	-0.1328337
61	0xbd262d48	-0.040570527
62	0x3db0f58f	0.086405866
63	0x3b8965ca	0.0041930424
64	0xbd3a74e5	-0.045521636
65	0x3d9e5e6d	0.07732854
66	0x3dabf910	0.08397114
67	0xbe938979	-0.2881582
68	0xbe16f110	-0.14740396
69	0x3d04f64b	0.032461446
70	0x3d32a13a	0.04361079
71	0xbd5de793	-0.054175925
72	0x3d0b244e	0.03397017
73	0x3d1cf1fb	0.038316708
74	0xbe7b53c7	-0.24543677
75	0xbc887032	-0.016655061
76	0x3f13f718	0.5779891
77	0xbfb04efa	-1.3774102
78	0xbf07dd09	-0.5307165
79	0xbf0b40e1	-0.5439587
80	0x3e9112fe	0.28334802
81	0xbef51725	-0.4786922
82	0x3db7928b	0.08963498
83	0xbeefbae1	-0.46822265
84	0x3e7bfd45	0.24608333
85	0x3e597002	0.21234134
86	0x3e10dd17	0.14146839
87	0xbe4a87d5	-0.19778378
88	0xbdda9988	-0.10673815
89	0x3eb71e4c	0.35765302
90	0xbe2f1a72	-0.17099932
91	0x3d44362a	0.047903217
92	0xbd851518	-0.06498164
93	0x3e1c1792	0.15243366
94	0x3e4844de	0.19557521
95	0xbbea8750	-0.007157244
96	0x3dd897b5	0.10575811
97	0xbcb698a8	-0.022289589
98	0x3dbac5cf	0.0911976
99	0x3d18984d	0.03725462
100	0x3d704ee0	0.05866897
101	0xbe751676	-0.2393435
102	0x3d2da74c	0.042395875
103	0xbd16df3f	-0.036833998
104	0x3dd9ae3c	0.10628936
105	0x3dc08700	0.09400749
106	0xbc9042ee	-0.01761004
107	0x3c084cef	0.008319124
108	0x3da7ac4e	0.081871614
109	0xbd8a5785	-0.06754974
110	0xbe1fdc18	-0.15611303
111	0x3e3d8cc3	0.18510728
112	0x3de98b9a	0.1140358
113	0x3db994dc	0.09061596
114	0xbd48c2db	-0.049013954
115	0x3cc809d5	0.02441875
116	0x3daf40ed	0.085573055
117	0xbc63427e	-0.013870833
118	0x3e5f6e31	0.21819378
119	0xbdc5a68b	-0.09650906
120	0x3d2cdee3	0.04220475
121	0x3d9eea13	0.0775949
122	0xbdf533d5	-0.11972777
123	0x3c9c228c	0.019059442
124	0xbddaeedb	-0.10690089
125	0x3ca68ee7	0.020331813
126	0x3ea1ee75	0.3162724
127	0x3e1c3add	0.1525683
128	0xbdd7420b	-0.105106436
129	0x3e814ac5	0.25252357
130	0x3bc90a2d	0.0061352463
131	0x3e438b91	0.19096209
132	0xba092f20	-0.00052331574
133	0x3c5039c3	0.012709084
134	0xbe3165b7	-0.17323957
135	0xbdb7f8b6	-0.08982985
136	0x3c85251e	0.01625305
137	0xbca67eab	-0.020324072
138	0xbd65419f	-0.055970784
139	0xbdcd2be4	-0.10018137
140	0x3e061964	0.13095623
141	0x3d783776	0.060599767
142	0xbe1d1a9d	-0.15342183
143	0x3dcd5a13	0.10026946
144	0xbe20c935	-0.15701754
145	0x3e212d76	0.15739998
146	0xbe133c70	-0.14378524
147	0xbc249b7f	-0.010046839
148	0x3e421418	0.18952978
149	0x3d6ac64d	0.05731802
150	0xbca0796f	-0.019589154
151	0xbdfa3c4e	-0.122185335
152	0x3c658107	0.014007813
153	0x3ede53c6	0.4342329
154	0xbe879674	-0.26481974
155	0xbe84021f	-0.25782868
156	0xbe4ae01f	-0.19812058
157	0xbe5c42ef	-0.21509908
158	0xbe9b580d	-0.30340615
159	0xbd66f26c	-0.056383535
160	0x3d83aca1	0.06429411
161	0xbd201a94	-0.039087847
162	0x3d939eb4	0.072080046
163	0x3e125724	0.14291054
164	0xbd8d7b2f	-0.06908261
165	0x3c817d91	0.015806945
166	0x3d979eb1	0.07403315
167	0xbdb0a0e0	-0.086244345
168	0x3a94d93d	0.0011356246
169	0x3cce56cf	0.025187878
170	0x3deebedd	0.11657498
171	0xbd5ac7c4	-0.053413168
172	0x3d458538	0.04822275
173	0xbeafbd8b	-0.34324297
174	0x3d495b71	0.04915947
175	0x3d0637a0	0.032767892
176	0x3dac2c58	0.084068954
177	0xbd235e60	-0.039884925
178	0x3ca92639	0.020648109
179	0xbdf0cd71	-0.11757935
180	0xbd0ad6cd	-0.033896256
181	0xbb995fce	-0.0046806103
182	0x3cd80018	0.026367232
183	0xbceabda3	-0.028654879
184	0x3ca06342	0.01957858
185	0xbdf7e2af	-0.12103783
186	0xbb95b1b6	-0.004568304
187	0x3c1d0958	0.009584747
188	0x3dd375f7	0.103252344
189	0xbe19a61a	-0.15004769
190	0x3b4d3f9b	0.003131843
191	0x3db9258e	0.09040366
192	0x3ce5538f	0.027993945
193	0xbda27800	-0.079330444
194	0x3cae477b	0.021274319
195	0xbc65b51f	-0.014020233
196	0xbb626b69	-0.0034548885
197	0xbd8e8f1f	-0.06960892
198	0x3d426021	0.047454957
199	0xbd9f9956	-0.077929184
200	0xbd1d268b	-0.038366836
201	0x3bf4a4f0	0.007465951
202	0xbe53d8cc	-0.2068817
203	0xbdd64ef1	-0.10464276
204	0xbe34b235	-0.17646106
205	0xbda181e6	-0.07886104
206	0xbe179d70	-0.14806151
207	0xbd46015f	-0.04834115
208	0xbe5d0cc2	-0.21586898
209	0x3ca9b83b	0.02071773
210	0x3c6c7ae1	0.0144335935
211	0xbcf91edc	-0.030410223
212	0xbe502173	-0.2032526
213	0xbd1b712e	-0.037949733
214	0xbe613c4a	-0.21995655
215	0xbe032e6e	-0.1281068
216	0x3d5c0d16	0.053723417
217	0xbe2a4583	-0.16628079
218	0xbdbc0c19	-0.09181995
219	0xbcfbd017	-0.030738873
220	0xbbdfa005	-0.0068244957
221	0xbe1bc8ee	-0.15213367
222	0x3cff5a2d	0.031170929
223	0xbcc78b8d	-0.024358535
224	0xbe886db2	-0.2664619
225	0x3df78bb2	0.12087192
226	0xbcae6f21	-0.021293225
227	0xbe1a4532	-0.15065458
228	0xbe3111cc	-0.17291945
229	0xbf9c5c17	-1.2215604
230	0x3e9cae07	0.30601522
231	0x3e822372	0.25417668
232	0x3ba5f251	0.0050642868
233	0x3f054f74	0.5207436
234	0x3e050219	0.12989081
235	0xbdc4e5df	-0.09614157
236	0xbdbe61c3	-0.0929599
237	0x3d7f1ad0	0.06228143
238	0x3e5e7a36	0.21726307
239	0x3e90532c	0.28188455
240	0x3d157840	0.036491632
241	0xbca40e5f	-0.020026384
242	0x3e32d09b	0.17462389
243	0xbc9ed659	-0.019389318
244	0x3db79820	0.089645624
245	0x3b776d35	0.0037754301
246	0xbdbf43d2	-0.093391076
247	0xbd3c7ef2	-0.046019502
248	0xbdbfee73	-0.093716525
249	0x3cd1beca	0.02560367
250	0xbdb1c4af	-0.086800925
251	0xbdb9c8c8	-0.09071499
252	0xbcd06b2f	-0.025441734
253	0x3d99bd1c	0.07506773
254	0xbc9768e0	-0.018482625
255	0x3dfea707	0.12434202

fc.0.bias f4 [128]
0	0x3cb42ee6	0.02199502
1	0xbe8dd578	-0.27701926
2	0x3c9c629a	0.019089986
3	0xbd34ade4	-0.044111148
4	0x3dd11fd6	0.1021115
5	0xbbd8dffb	-0.0066184974
6	0x3c3c3e26	0.011489427
7	0x3c346fab	0.011012952
8	0xbdbb95ed	-0.091594554
9	0xbdaebcb2	-0.085320845
10	0xbd8d71c7	-0.06906467
11	0xbc7d0eff	-0.01544547
12	0xbddef5a3	-0.10886695
13	0x3d76ca31	0.06025142
14	0xbcdb73dc	-0.026788644
15	0xbe026bac	-0.12736386
16	0xbdaf7ab6	-0.08568327
17	0x3bcf1f69	0.006320883
18	0xbd6a236c	-0.057162687
19	0xbd62f03b	-0.055404883
20	0xbd8f1192	-0.06985773
21	0xbd1eebd8	-0.038799137
22	0xbd7c5588	-0.061605006
23	0x3d15e868	0.036598593
24	0xbd8d7751	-0.069075234
25	0x3b470d97	0.003037309
26	0xbb9cf540	-0.0047899783
27	0xbde2e842	-0.11079456
28	0xbc3045d5	-0.010758837
29	0x3c0af74a	0.00848181
30	0x3c319b71	0.010840283
31	0x3b8c5d7f	0.0042836065
32	0xbea6030d	-0.32424203
33	0xbd261efc	-0.040556893
34	0x3e35b475	0.1774462
35	0xbdb0a90b	-0.086259924
36	0x3cc4c710	0.024020702
37	0x3d994e78	0.0748567
38	0x3de0bff0	0.10974109
39	0xbe3a3d16	-0.18187365
40	0x3dbcbf95	0.09216229
41	0xbe6e700a	-0.23284927
42	0x3d5c0a61	0.053720836
43	0xbe4e61f5	-0.20154555
44	0xbe0f3e27	-0.13988553
45	0xbcd5ef7a	-0.026115168
46	0xbc0c7a0d	-0.008574021
47	0xbddac75c	-0.10682556
48	0xbdd35426	-0.103187844
49	0xbd76371c	-0.06011115
50	0xbcafd618	-0.021464393
51	0x3d074b43	0.03303076
52	0x3e14266e	0.14467785
53	0xbcc0fe51	-0.023558768
54	0xbd8bea2a	-0.068317726
55	0xbca958b7	-0.020672185
56	0x3d86d7eb	0.06584152
57	0xbd1ecc0b	-0.03876881
58	0x3d5a8048	0.053344995
59	0xbc9745da	-0.018465925
60	0xbdbff409	-0.09372718
61	0xbd749ebc	-0.059721693
62	0x3d7f5a43	0.06234194
63	0xbde19789	-0.11015231
64	0x3d979dd9	0.07403154
65	0x3b976e6f	0.004621319
66	0x3d002683	0.031286728
67	0xbe0643e6	-0.13111839
68	0x3c807fbd	0.01568591
69	0xbcdaa0ed	-0.026688064
70	0xbde17b4e	-0.11009847
71	0xbcdc7f76	-0.026916247
72	0xbe297bf5	-0.16551192
73	0xbda61502	-0.08109476
74	0x3d067dac	0.032834694
75	0x3d3ba682	0.04581309
76	0xbe5fa477	-0.21840082
77	0xbd1f90eb	-0.038956564
78	0xbda0975f	-0.07841372
79	0x3c256853	0.010095674
80	0x3cba4480	0.022737741
81	0xbd971e63	-0.07378843
82	0x3de37d5e	0.11107896
83	0x3a4cf86c	0.0007819
84	0x3cb96b53	0.022634184
85	0xbdb01367	-0.08597451
86	0xbd0146de	-0.031561725
87	0x3d851833	0.06498756
88	0xbcee215c	-0.029068641
89	0xbcb416d0	-0.021983534
90	0x3c119d79	0.008887642
91	0xbd453be1	-0.048152808
92	0xbdbfaca1	-0.09359098
93	0xbe484502	-0.19557574
94	0x3cd86aaa	0.026418049
95	0x3c492939	0.012277895
96	0xbca21382	-0.019784693
97	0x3d69dd65	0.057095904
98	0xbcb6983a	-0.022289384
99	0xba846b0e	-0.0010102706
100	0x3c8093b8	0.015695438
101	0x3c4780e3	0.012176725
102	0x395e5e01	0.00021206589
103	0x3d8e4104	0.069459945
104	0xbdb05cb1	-0.086114295
105	0xbe19f7a8	-0.1503588
106	0x3a1b00bc	0.000591289
107	0x3d60719c	0.054795846
108	0x3bf8636c	0.0075802114
109	0x3ca54aea	0.020177323
110	0xbdcb4b20	-0.09926438
111	0xbd24c5e9	-0.040227804
112	0xbd777f19	-0.060423944
113	0x3d254077	0.04034468
114	0xbde69a8a	-0.11259945
115	0xbdca8be3	-0.098899625
116	0xbd9100dd	-0.07080243
117	0xbcf37299	-0.02971773
118	0x3d89d6f1	0.0673045
119	0x3d743f0f	0.05963045
120	0xbd808129	-0.06274635
121	0xbdaa0d16	-0.08303277
122	0xbd10b664	-0.03533019
123	0xbe25547d	-0.16145511
124	0xbced45e6	-0.028963994
125	0xbd1c3df7	-0.03814503
126	0xbcffdc5e	-0.031233009
127	0x3e40091f	0.1875348

fc.3.weight f4 [64, 128]
0	0xbda0acc0	-0.078454494
1	0x3f23e197	0.640161
2	0xbea667cc	-0.32501066
3	0x3e81fc47	0.25387785
4	0x3dfa2ce2	0.12215592
5	0xbd1324ad	-0.03592365
6	0x3d7a787c	0.06115006
7	0x3d96f054	0.07370058
8	0x3e451970	0.19247985
9	0xbc6eaabd	-0.014567074
10	0x3e1acf7f	0.15118216
11	0xbdf667d6	-0.12031524
12	0xbc60ec08	-0.013728149
13	0xbea0e4b3	-0.31424484
14	0x3ea99d67	0.331279
15	0xbe7881f8	-0.24268329
16	0xbe878d7e	-0.26475137
17	0xbf063adc	-0.5243356
18	0xbd686d90	-0.056745112
19	0x3dc7fa7c	0.09764573
20	0xbea87fac	-0.32909906
21	0xbddd8f48	-0.10818344
22	0x3e291e09	0.16515364
23	0xbeba6641	-0.3640614
24	0x3de8cfd4	0.11367765
25	0x3cdada87	0.02671553
26	0x3da1453e	0.07874535
27	0xbe15d2f6	-0.14631256
28	0x3dcae23e	0.099064335
29	0x3e1b8083	0.15185742
30	0xbd3c70ed	-0.046006132
31	0xbe5b5b11	-0.21421458
32	0x3e4cead3	0.20011453
33	0xbdf2cb96	-0.11855237
34	0x3dcd463d	0.100231625
35	0x3ae664ac	0.001757761
36	0x3d25d1db	0.040483337
37	0xbe3f4068	-0.18676913
38	0xbe1f6bd7	-0.15568481
39	0xbe136eb0	-0.14397693
40	0x3ed48f5c	0.41515625
41	0x3ea273ff	0.31729123
42	0xbe27dda8	-0.16393149
43	0xbe66b07a	-0.22528258
44	0x3f0ab212	0.54177964
45	0xbcf6cfd2	-0.030128393
46	0x3ef4e9ac	0.47834527
47	0x3ef3a0c3	0.4758359
48	0xbcf2d4e4	-0.02964253
49	0x3dc88e6b	0.09792789
50	0xbbbca8fc	-0.005757449
51	0x3db86ce7	0.090051465
52	0xbbc3993d	-0.005969195
53	0x3e895a92	0.26826912
54	0xbdb27621	-0.087139376
55	0x3d96964c	0.073528856
56	0x3d0d4cd3	0.034497093
57	0x3b7d8528	0.0038684104
58	0x3dd61c89	0.104546614
59	0x3e49b65e	0.19698474
60	0xbe22c3af	-0.1589496
61	0x3da3a098	0.07989615
62	0xbe4edaa4	-0.20200592
63	0x3db9032e	0.090338096
64	0x3db16547	0.08661895
65	0x3d9293d7	0.071571045
66	0xbe612369	-0.21986164
67	0x3dcc6e10	0.0998193
68	0x3d4aad97	0.049481954
69	0xbd6cef77	-0.05784556
70	0x3ea467e7	0.3211052
71	0x3cde8d28	0.027166918
72	0x3ef48a12	0.4776159
73	0x3d0a3e81	0.033751015
74	0x3e8bc247	0.2729666
75	0xbc0a3d82	-0.008437516
76	0x3de33c25	0.11095456
77	0xbe249e22	-0.16075948
78	0xbe741158	-0.23834741
79	0xbf0ab979	-0.5418926
80	0x3f1a1c18	0.6019912
81	0x3ed8268e	0.42216915
82	0x3e5a67f4	0.21328717
83	0xbc878da9	-0.016547041
84	0x3d98af33	0.074552916
85	0x3ed6af3e	0.41930574
86	0x3ef53284	0.47890103
87	0x3e0e821c	0.1391682
88	0x3cedf8eb	0.029049357
89	0x3d892725	0.06696919
90	0x3f05223d	0.5200537
91	0x3d5057de	0.050865047
92	0xbd0e9964	-0.034814253
93	0x3ea837bc	0.32855022
94	0xbd176e08	-0.03697017
95	0xbdc5aee8	-0.09652501
96	0x3de3a6a7	0.11115771
97	0xbdf0f7e3	-0.11766031
98	0xbcb80940	-0.022465348
99	0xbcdd5aba	-0.0270208
100	0x3e3948b7	0.18094145
101	0x3e15c800	0.14627075
102	0x3debb32e	0.11508785
103	0xbe220a0e	-0.15824148
104	0x3c836403	0.0160389
105	0x3d14fae1	0.03637207
106	0x3ddb18c2	0.106980816
107	0x3e0153c5	0.12629612
108	0x3e4a4729	0.19753708
109	0xbea1e016	-0.31616277
110	0x3e67b884	0.22628981
111	0x3db57642	0.088604465
112	0x3de10fdd	0.10989354
113	0x3e6a9e84	0.22912031
114	0x3e3c7ad0	0.18406224
115	0x3f05fbd4	0.52337384
116	0x3d5e73b9	0.05430958
117	0x3e16e447	0.14735518
118	0x3db57833	0.08860817
119	0xbcf76193	-0.030197894
120	0x3db576ff	0.08860587
121	0xbe288fab	-0.16461055
122	0x3bb7faaa	0.0056145983
123	0x3e156aa1	0.14591457
124	0xbdba774d	-0.09104786
125	0x3eb7704d	0.35827866
126	0xbc6b9b31	-0.014380262
127	0x3da48276	0.08032696
128	0x3e24389d	0.16037221
129	0x3f029d49	0.5102125
130	0xbea36058	-0.31909442
131	0xbdbf6ee7	-0.09347325
132	0xbdc1a517	-0.094553165
133	0xbd4af184	-0.049546733
134	0xbdab5f90	-0.083678365
135	0x3e447e9a	0.1918892
136	0xbed27f25	-0.4111263
137	0x3e0fa4db	0.14027731
138	0x3e8167f7	0.2527463
139	0xbe1902a7	-0.14942418
140	0x3e56a3c2	0.20960906
141	0xbeb312f6	-0.34975404
142	0x3e98c099	0.2983444
143	0xbe5864e8	-0.21132243
144	0xbc8319a8	-0.016003445
145	0xbedd81a0	-0.4326296
146	0x3c115793	0.008870977
147	0x3df4969a	0.119427875
148	0xbe0cba4c	-0.13742942
149	0xbd3dbbab	-0.046321552
150	0x3e83aa0b	0.2571567
151	0xbe4a072b	-0.19729297
152	0x3e70a625	0.23500879
153	0x3d2ffaba	0.04296372
154	0xbeb3880e	-0.3506474
155	0xbe61ff3b	-0.22070019
156	0xbceb641f	-0.028734265
157	0xbd990327	-0.074713044
158	0x3e5700fd	0.20996471
159	0xbe01593d	-0.12631698
160	0x3e086d4e	0.13322946
161	0xbeb72f41	-0.3577824
162	0x3d07763d	0.033071745
163	0x3d3d1ea8	0.046171814
164	0x3dcfcd8b	0.10146626
165	0xbd8ce708	-0.06880003
166	0xbec42be1	-0.38314727
167	0x3dbc4969	0.091936894
168	0x3db062fd	0.086126305
169	0x3ef2de83	0.47435388
170	0xbd2349c1	-0.03986526
171	0xbec119e1	-0.37715057
172	0x3ec02046	0.37524623
173	0x3c7562ce	0.01497717
174	0x3ee64e2c	0.44981515
175	0x3ec09ec0	0.37621117
176	0xbcd9b329	-0.026574688
177	0x3c3ab33e	0.011395274
178	0x3dbdaf4a	0.09261949
179	0xbed163b3	-0.40896377
180	0xbdf3e364	-0.11908606
181	0x3e9c9fb9	0.3059061
182	0xbe19d806	-0.15023813
183	0x3e8787af	0.26470706
184	0x3c3412be	0.010990797
185	0xbd811260	-0.06302333
186	0x3e37be0d	0.17943592
187	0x3b90dc2d	0.0044207782
188	0x3e667619	0.22505988
189	0x3cec9024	0.028877325
190	0xbdef231b	-0.11676618
191	0x3de0ce39	0.10976834
192	0x3dba3d29	0.090936966
193	0x3d17ad3e	0.03703045
194	0xbe4d98a3	-0.20077758
195	0xbee7f1b7	-0.453016
196	0x3d60cf99	0.05488548
197	0xbcd94367	-0.026521398
198	0x3e1ecbfb	0.155075
199	0xbdd09f48	-0.101866305
200	0x3e6dc171	0.23218323
201	0x3e3666f5	0.17812712
202	0x3e8c0547	0.27347776
203	0xbde581f9	-0.11206431
204	0x3e68bf62	0.22729257
205	0xbda1fb58	-0.07909268
206	0xbdb293f8	-0.08719629
207	0xbedeff52	-0.4355417
208	0xbd83fbe9	-0.064445324
209	0x3daf8add	0.08571408
210	0xbdd79fb3	-0.10528507
211	0x3dbea1cf	0.09308206
212	0xbe569298	-0.20954359
213	0xbe736d65	-0.237722
214	0xbe3c14e8	-0.1836735
215	0x3e1a2bc1	0.15055753
216	0xbe68edab	-0.22746913
217	0xbe9130ae	-0.28357452
218	0xbe6f8190	-0.23389268
219	0x3de5cc9c	0.11220667
220	0xbe5eb403	-0.21748357
221	0x3f215dbd	0.6303366
222	0x3e475b11	0.19468333
223	0xbdc039b9	-0.0938601
224	0xbd177762	-0.036979087
225	0xbdeed20f	-0.11661159
226	0xbdf91718	-0.12162608
227	0x3d8ecacd	0.06972275
228	0x3e325736	0.17416081
229	0x3cd77c90	0.026304513
230	0xbdeac5b7	-0.11463492
231	0xbdba6502	-0.09101297
232	0xbd873628	-0.06602126
233	0xbdae54d1	-0.08512271
234	0xbde3529f	-0.11099743
235	0x3cc3c6b6	0.023898464
236	0x3d2a6544	0.04160048
237	0xbd82d9b8	-0.06389183
238	0x3e442323	0.19154029
239	0xbbd2c0b7	-0.006431665
240	0x3e4dd56c	0.20100945
241	0x3df6823b	0.12036558
242	0x3e07283f	0.13198946
243	0x3e80f7a5	0.25188938
244	0x3dc99870	0.09843528
245	0x3d54c5a1	0.051946286
246	0x3ebed045	0.37268272
247	0xbe4486c0	-0.19192028
248	0xbcec5f26	-0.028853964
249	0xbe0e9f3c	-0.1392793
250	0xbc6ff60b	-0.014646064
251	0x3d9d3aaf	0.07677209
252	0x3d6ca9d9	0.057779167
253	0xbd4cb8cb	-0.04998092
254	0xbe99e182	-0.3005486
255	0x3d818220	0.063236475

fc.3.bias f4 [64]
0	0x3e358b60	0.17728949
1	0x3e07841d	0.13233991
2	0x3e4991c9	0.19684519
3	0x3dcf5ad4	0.10124746
4	0x3d3c417b	0.045960885
5	0x3b372fa8	0.002795199
6	0x3e25acbd	0.16179176
7	0x3e62ebfb	0.22160332
8	0x3e0e0ce3	0.13872103
9	0xbd2585ab	-0.04041068
10	0x3cb23643	0.02175439
11	0x3e3fa880	0.18716621
12	0x3e27db99	0.16392364
13	0x3e5d29ca	0.21597973
14	0x3e34a5d1	0.17641379
15	0x3d9776a8	0.07395679
16	0x3e045d7a	0.12926283
17	0x3e62de74	0.22155172
18	0x3d36156a	0.044454016
19	0x3e81cd00	0.25351715
20	0x3e57d8cb	0.21078794
21	0x3e65cec1	0.22442152
22	0x3e1eaf4c	0.15496558
23	0x3e2779fe	0.1635513
24	0x3e07229e	0.13196799
25	0x3da7174b	0.0815874
26	0x3e0bc29b	0.13648455
27	0x3e0eeb2c	0.13956898
28	0x3da0a335	0.07843629
29	0x3e44a9a4	0.19205338
30	0x3e1f8d53	0.15581255
31	0x3dd185ef	0.10230624
32	0xbcf44673	-0.029818749
33	0x3e43d120	0.19122744
34	0x3e2f33d7	0.17109619
35	0x3de8c2a8	0.11365253
36	0x3cb9ebab	0.022695383
37	0x3e0062fa	0.12537757
38	0x3dd2440b	0.102668844
39	0x3e1fafeb	0.15594451
40	0x3e4b56fb	0.19857399
41	0xbc06b318	-0.00822141
42	0xbd8c10e8	-0.06839162
43	0x3e61628b	0.22010247
44	0x3e022ad8	0.12711656
45	0xbe21bba2	-0.15794232
46	0xbe033645	-0.12813671
47	0x3dec1e34	0.11529198
48	0x3e941a7e	0.28926462
49	0x3d967b0f	0.0734769
50	0x3e55cab3	0.20878105
51	0x3e3d6f30	0.18499446
52	0x3e7dc53a	0.24782267
53	0x3e0a1e01	0.13488008
54	0x3cc71c9d	0.024305636
55	0x3e1c95c4	0.15291506
56	0x3dd47906	0.10374646
57	0x3dd56cbd	0.10421131
58	0x3e4944bd	0.19655128
59	0x3dab1495	0.08353535
60	0x3e921dee	0.2853846
61	0x3da474bb	0.08030077
62	0x3dd4f751	0.10398734
63	0x3e02a851	0.1275952

fc.6.weight f4 [6, 64]
0	0x3e5ae335	0.21375735
1	0x3dca31b2	0.0987276
2	0xbe18dcca	-0.14927974
3	0x3e5c71f9	0.21527852
4	0x3e25ef70	0.1620462
5	0x3e6250f7	0.22101198
6	0x3e3b6f0d	0.18304081
7	0xbe79fc97	-0.24412762
8	0xbe53e02d	-0.20690985
9	0x3e073870	0.13205123
10	0xbdbe4d68	-0.09292108
11	0xbfd54ea9	-1.666463
12	0xbe9cfc38	-0.30661178
13	0x3dc951b6	0.09830038
14	0xbf411741	-0.7542611
15	0xbeb32b11	-0.34993795
16	0xbe605071	-0.21905686
17	0xbf532503	-0.8247835
18	0x3e7b598c	0.24545878
19	0xbfdd276e	-1.7277658
20	0xbf42569f	-0.75913423
21	0xbe8b7c74	-0.27243388
22	0x3ea361c1	0.31910518
23	0xbf01ff0f	-0.50779814
24	0xc06dfe7d	-3.7186577
25	0xbee5f72c	-0.4491514
26	0xbef70283	-0.48244104
27	0xbf7544bb	-0.95808
28	0xc031a173	-2.775479
29	0xbf2811f4	-0.65652394
30	0xbf87c2e1	-1.0606347
31	0xbfaeb2e0	-1.3648338
32	0xbdf1e521	-0.11811281
33	0x3e0645d7	0.1311258
34	0x3e298c49	0.16557421
35	0x3e73eb20	0.23820162
36	0x3e0b62b5	0.13611872
37	0xbe8eceda	-0.2789219
38	0xbf7b87ef	-0.98254293
39	0xbfcf2fca	-1.6186459
40	0xc05d7c6d	-3.4607193
41	0x3e96f6dc	0.29485214
42	0x3e247480	0.16060066
43	0xbea5b01a	-0.32360917
44	0x3e3e4a63	0.18583064
45	0x3e97ebbc	0.2967204
46	0x3db2fe0f	0.08739864
47	0xbec129fd	-0.37727347
48	0xc0080118	-2.1250668
49	0xbe677f3f	-0.22607134
50	0xbfa70c47	-1.3050622
51	0x3e5e6bec	0.21720856
52	0xbf468025	-0.77539283
53	0xbebf8f46	-0.37413996
54	0x3e057b43	0.13035302
55	0xbe18f58c	-0.14937419
56	0x3d96b5cb	0.07358893
57	0xbe248056	-0.16064581
58	0xbecc1d6c	-0.39866197
59	0xbe944a5f	-0.2896299
60	0xbf30dfc2	-0.6909143
61	0xbe3d97a8	-0.18514884
62	0x3e9f0a9c	0.31062782
63	0x3e2b710a	0.1674234
64	0xbe9720a0	-0.29517078
65	0xbd873f8e	-0.06603919
66	0x3da7153d	0.08158348
67	0x3d12bde9	0.035825644
68	0xbe6f5e47	-0.23375808
69	0x3daba8a7	0.08381777
70	0xbd3055cf	-0.043050583
71	0xbd0e26fa	-0.03470514
72	0x3cc7c042	0.024383668
73	0xbb0267ab	-0.0019898217
74	0x3dbdcb00	0.09267235
75	0x3db7f8a9	0.08982975
76	0xbe715cc9	-0.23570551
77	0x3dd0c806	0.101944014
78	0xbe63cc5b	-0.22245924
79	0xbca31056	-0.01990525
80	0x3d286ee3	0.041121375
81	0x3dc67bbc	0.09691569
82	0x3e0955fb	0.13411705
83	0x3e1384a9	0.14406075
84	0x3e175ad7	0.14780746
85	0xbe802e97	-0.25035545
86	0x3a381693	0.0007022407
87	0xbbd961de	-0.006633981
88	0x3c83c85a	0.016086746
89	0x3dc89a43	0.09795048
90	0x3db48879	0.088150926
91	0x3e0bb1f7	0.13642107
92	0xbd046013	-0.032318186
93	0x3d976c98	0.073937595
94	0x3e063597	0.1310638
95	0x3da75c82	0.08171941
96	0xbea98066	-0.33105773
97	0xbc710110	-0.014709726
98	0xbe81f79c	-0.25384223
99	0x3d74b24f	0.05974036
100	0xbeb367e1	-0.3504019
101	0x3dd267ab	0.10273679
102	0x3c764e7d	0.0150333615
103	0xbe1a388a	-0.1506063
104	0x3d899557	0.067179374
105	0xbe48da6b	-0.1961457
106	0xbe450fe9	-0.1924435
107	0x3da685f5	0.08131019
108	0xbe4b8c32	-0.19877699
109	0x3da8ef98	0.08248824
110	0xbd9f9702	-0.07792474
111	0xbe442d94	-0.19158012
112	0x3d0c8c33	0.034313392
113	0x3cb35408	0.021890655
114	0x3de43eef	0.11144816
115	0xbe484fea	-0.19561735
116	0x3e12365d	0.1427855
117	0xbbdb0342	-0.006683738
118	0xbc9b4bfc	-0.01895713
119	0xbe7cdabc	-0.24692816
120	0x3d502410	0.050815642
121	0x3db10c10	0.08644879
122	0x3db7b8c4	0.08970788
123	0xbde7c76f	-0.11317336
124	0x3de07554	0.109598786
125	0x3d882c70	0.06649101
126	0xbe1f72bf	-0.15571116
127	0x3de7eb91	0.113242276
128	0xbb9ad245	-0.004724773
129	0x3df5edde	0.1200826
130	0xbe10701b	-0.14105265
131	0xbd08bc29	-0.03338257
132	0xbcfd149b	-0.030893615
133	0xbf1a107f	-0.6018142
134	0xbe671453	-0.22566347
135	0xbc0bbc08	-0.008528717
136	0xbe69653d	-0.22792526
137	0xbf209b1e	-0.6273669
138	0xbd9afc5a	-0.075676635
139	0x3df22c88	0.118249
140	0x3c1dc13c	0.00962859
141	0x3d89498a	0.067034796
142	0x3c4e94a3	0.01260868
143	0xbe800963	-0.25007161
144	0xbe5539c8	-0.20822823
145	0xbdc61773	-0.09672441
146	0x3dbe9fbe	0.09307812
147	0x3e10cbbc	0.14140218
148	0x3e1a0d25	0.15044077
149	0x3d5e5140	0.054276705
150	0x3e1f7de6	0.1557537
151	0xbd4e4f1e	-0.05036842
152	0x3de511ab	0.111850105
153	0xbdd65e3d	-0.10467193
154	0x3d8c7b13	0.06859412
155	0x3db403fa	0.08789821
156	0x3d802423	0.062568925
157	0x3d2d3c20	0.042293668
158	0x3db377af	0.08763062
159	0x3df5d80e	0.120041
160	0x3e60d637	0.21956716
161	0xbe8961fd	-0.26832572
162	0xbd8edfa7	-0.06976252
163	0xbe4adf17	-0.19811665
164	0xbd5b2437	-0.053501334
165	0xbe45c335	-0.19312747
166	0x3d90606a	0.070496395
167	0x3da8b1ec	0.08237061
168	0x3df403a0	0.11914754
169	0xbe5aec7a	-0.21379271
170	0xbf62250a	-0.8833777
171	0xbe19ca81	-0.15018655
172	0x3d13c8ba	0.0360801
173	0xbf2b8270	-0.66995907
174	0x3d9e6d93	0.077357434
175	0x3cca4c57	0.024694605
176	0x3e03c619	0.12868537
177	0x3c5ac395	0.013352294
178	0x3e041a8d	0.12900753
179	0x3c2f6271	0.010704623
180	0x3ddc5e25	0.10760144
181	0xbe1364b3	-0.14393882
182	0xbd282309	-0.041049037
183	0x3d9de952	0.07710518
184	0xbe479d60	-0.19493628
185	0x3d44c492	0.048039027
186	0x3da40402	0.08008577
187	0x3d637956	0.055535637
188	0x3dc2bfd5	0.09509245
189	0xbe156fd2	-0.14593437
190	0x3d831fae	0.06402527
191	0x3d9668ee	0.073442325
192	0x3ddabea1	0.10680891
193	0xbfa43320	-1.2828102
194	0x3e30df66	0.1727272
195	0x3e0ca9ae	0.13736603
196	0x3dfcf1cd	0.12350807
197	0x3e0e6f39	0.13909616
198	0xbe8c4761	-0.27398208
199	0x3e48b408	0.19599926
200	0x3e09725e	0.13422534
201	0x3d83b899	0.064316936
202	0x3dbbfe62	0.09179379
203	0xc00a7bca	-2.1638055
204	0x3e2b6483	0.16737561
205	0xbf3e5bbd	-0.7435873
206	0xbeffe06f	-0.49975917
207	0x3deac4e6	0.11463337
208	0x3db81a34	0.08989373
209	0xbed2ea8e	-0.41194576
210	0xbec14e4f	-0.37755057
211	0xc004a452	-2.0725293
212	0xbf814643	-1.0099567
213	0x3e66e5ca	0.22548595
214	0xbea107c5	-0.3145124
215	0xbfa9fca2	-1.3280222
216	0xbf0a5716	-0.5403913
217	0xbee87b5d	-0.4540662
218	0x3e331d7e	0.17491719
219	0xbf717b7e	-0.9432906
220	0xbed8d4f1	-0.4234996
221	0x3e1a8070	0.15088058
222	0x3d99e180	0.07513714
223	0xbdfa6026	-0.1222537
224	0x3e654b8e	0.22392103
225	0x3da2a717	0.07942026
226	0x3e0c18f5	0.13681395
227	0x3dada490	0.084786534
228	0x3e456f0d	0.19280644
229	0x3e18968d	0.1490118
230	0xbe59d02b	-0.21270816
231	0xbf25f5d4	-0.6482823
232	0xbfd4504c	-1.6587005
233	0xbeb630b4	-0.35584033
234	0xbe9fe932	-0.312326
235	0xbe5ba87a	-0.21450987
236	0xbfaa3860	-1.3298454
237	0xbd85c91e	-0.06532501
238	0xbd20be19	-0.03924379
239	0x3de8c8e8	0.11366445
240	0xbfa4ebf1	-1.2884504
241	0xbf4350a4	-0.7629492
242	0xbfe0127a	-1.7505639
243	0xbf141b09	-0.5785375
244	0xbf83c8dc	-1.0295672
245	0x3e0cb199	0.13739623
246	0x3e2dc5ad	0.16969939
247	0x3e3b3856	0.18283209
248	0x3e19d888	0.15024006
249	0x3e39de3c	0.18151182
250	0x3e143554	0.14473468
251	0x3e55c666	0.20876464
252	0xbfe8ff98	-1.8203001
253	0xbece3c80	-0.40280533
254	0xbe9e768e	-0.30949825
255	0xbf70ee63	-0.9411375

fc.6.bias f4 [6]
0	0xbf176c9d	-0.59150106
1	0x3dbe448c	0.09290418
2	0x3e870b7d	0.26375952
3	0x3eafe744	0.3435613
4	0xbebc86e7	-0.36821672
5	0xbf096a26	-0.53677595
