artifacts/hgae_gating.pth (torch, 76784 bytes, 6 tensors)

fc.0.weight f4 [128, 76]
0.50693566 -0.1915984 -0.7400925 -0.7635759 -0.6213831 0.3065115 -0.14941686 -0.05002024
-0.24691615 -0.025071705 -0.08481357 0.13079415 0.028969876 -0.21395549 0.012062954 0.05167417
0.036108017 -0.063428655 -0.095770694 0.08322462 -0.06324639 -0.013091183 0.068866886 0.033637494
-0.06625158 -0.08272223 0.035358295 -0.006799185 0.025402084 -0.11532838 0.06514641 0.12110239
0.044785272 -0.07274053 0.11583144 0.011172887 -0.094222575 0.074470095 0.23047072 0.08256883
0.067592785 0.074617326 0.007974708 0.023203019 0.010846226 -0.14258045 0.0666361 0.17743489
-0.0040817573 -0.1463805 -0.016837737 -0.10156904 -0.025598 0.043304898 0.1252472 0.12251252
-0.044620022 0.06366157 0.013603601 0.06811979 -0.13290925 0.047745906 0.015905196 0.11016219
-0.0013662577 -0.058370553 -0.08035462 -0.012769768 0.023791708 0.1039985 -0.032120727 0.006903963
0.025456183 0.07743043 0.004322975 -0.059550047 -0.27214277 -0.030391544 0.01383568 -0.33258134
-0.1373027 0.5685814 -0.25050038 -0.32427856 -0.22640859 -0.113338344 -0.2358731 0.49864432
0.12010943 0.0066189184 -0.07414003 -0.03932359 0.038333505 -0.07551136 0.050301164 0.03647946
-0.06448094 -0.28939822 -0.073511995 -0.037917916 0.11992169 -0.21718061 -0.08020654 0.03568438
-0.17542441 0.058847047 -0.029685019 0.1507945 0.011741045 0.07954695 -0.0324121 -0.20344447
-0.05924158 0.006953405 0.16252291 0.12741709 -0.13596253 -0.026102973 -0.17746314 0.05854739
-0.02784495 -0.020488583 -0.07911229 0.080832295 0.010547666 -0.03373692 -0.0075865295 0.010768938
-0.12849815 -0.12868297 0.07610308 -0.024950564 -0.16360907 0.102359556 0.0012091727 -0.08570812
-0.060151313 -0.016249422 0.07692514 -0.12528299 -0.12791257 -0.09059398 -0.082498334 -0.04933354
0.063407436 -0.045832336 -0.024847418 0.011689794 -0.11352013 0.06953556 0.040559486 -0.05544122
-0.3606891 0.14259715 -0.09764849 -0.55771285 -1.8557647 -0.11976543 0.26959115 0.03605082
0.08517578 -0.14853378 -0.96357405 0.046230324 0.029601807 -0.15924114 -0.17988035 0.026168235
0.03902962 -0.047966685 -0.21424918 -0.13616876 -0.09842975 0.04049673 -0.07734592 -0.04733884
0.022535685 -0.064729966 -0.085011 -0.0524445 -0.06523848 -0.11075218 0.06275156 0.0827603
-0.07740927 0.15311562 0.02853152 -0.006828069 -0.20339599 0.031964745 -0.09172286 -0.018004041
-0.04667562 -0.021884138 -0.011462665 0.034504514 0.009871856 -0.12077421 0.05607152 0.031312156
-0.06392531 -0.039676163 -0.27842966 -0.04417983 -0.00037145405 -0.06778453 0.030042723 0.07959755
-0.09164148 -0.08123594 -0.028458541 0.026372077 -0.08263329 -0.06801799 0.09951946 -0.011514547
-0.07420222 0.045062277 -0.081894055 0.009833083 0.11278165 0.15310995 -0.07825121 -0.11587253
-0.14689043 -0.20982878 0.046306614 -0.09895026 -0.40782124 0.34558862 -0.32605094 -0.35359764
-0.22443534 0.013773923 -0.2923559 -0.07586726 -0.07969845 -0.035642907 0.13390565 -0.23846121
-0.016482292 0.0061066956 -0.23610681 -0.1788617 0.011616985 -0.01267495 0.0386711 -0.008932632
0.0024694058 -0.04207516 -0.02392506 0.1426386 -0.17376727 0.07980347 0.03127347 -0.03664722
00000000: 89c6 013f 5f32 44be b476 3dbf b679 43bf
00000010: f612 1fbf 13ef 9c3e bc00 19be 06e2 4cbd
00000020: 96d7 7cbe 2d63 cdbc bdb2 adbd e7ee 053e
00000030: 3c52 ed3c 2617 5bbe b2a3 453c 4ba8 533d
00000040: 00e6 133d e2e6 81bd 6d23 c4bd ab71 aa3d
00000050: 5387 81bd 677c 56bc 150a 8d3d 78c7 093d
00000060: e9ae 87bd 466a a9bd dcd3 103d b3cb debb
00000070: 0818 d03c 4931 ecbd 7b6b 853d 8804 f83d
00000080: c370 373d fdf8 94bd 0939 ed3d 7c0e 373c
00000090: c4f7 c0bd c783 983d 8400 6c3e d919 a93d
000000a0: 166e 8a3d f8d0 983d 5aa8 023c 4214 be3c
000000b0: 5eb4 313c 9c00 12be 8278 883d 7eb1 353e
000000c0: 43c0 85bb c5e4 15be 4bef 89bc 6e03 d0bd
000000d0: e6b2 d1bc 7a60 313d cd40 003e d8e7 fa3d
000000e0: 7cc3 36bd ff60 823d a3e1 5e3c 6382 8b3d
000000f0: 5d19 08be 3691 433d 9d4b 823c b79c e13d
00000100: 0014 b3ba f615 6fbd f790 a4bd 4a38 51bc
00000110: d4e6 c23c 2afd d43d 0691 03bd a43a e23b
00000120: 7c89 d03c d893 9e3d bea7 8d3b c0ea 73bd
00000130: 4c56 8bbe b0f7 f8bc 0caf 623c 1a48 aabe
00000140: 1499 0cbe 8d8e 113f 9641 80be d707 a6be
00000150: a7d7 67be ef1d e8bd b888 71be 4f4e ff3e
00000160: effb f53d 83e3 d83b bad6 97bd c611 21bd
00000170: 9803 1d3d b3a5 9abd 9808 4e3d 7c6b 153d
00000180: 950e 84bd 012c 94be 758d 96bd d14f 1bbd
00000190: 8199 f53d 9864 5ebe 5443 a4bd c929 123d
000001a0: 75a2 33be 9a09 713d ff2d f3bc e069 1a3e
000001b0: 835d 403c 83e9 a23d 8dc2 04bd bf53 50be
000001c0: 4da7 72bd 64d9 e33b 686c 263e a079 023e
000001d0: c339 0bbe e7d5 d5bc e6b8 35be 63cf 6f3d
000001e0: 181b e4bc acd7 a7bc a005 a2bd 678b a53d
000001f0: 1ed0 2c3c ba2f 0abd 6c98 f8bb 3370 303c
00000200: 0595 03be 78c5 03be eedb 9b3d 2065 ccbc
00000210: 2389 27be e3a1 d13d 1a7d 9e3a bd87 afbd
00000220: 3961 76bd 821d 85bc ee8a 9d3d 2f4a 00be
00000230: 83fb 02be 5689 b9bd e3f4 a8bd f711 4abd
00000240: c2db 813d b0ba 3bbd d08c cbbc 8d86 3f3c
00000250: 3e7d e8bd a968 8e3d b421 263d 5516 63bd
00000260: 3eac b8be fd04 123e eefb c7bd 45c6 0ebf
00000270: b389 edbf 9447 f5bd da07 8a3e 06aa 133d
00000280: a470 ae3d 3d19 18be caac 76bf 025c 3d3d
00000290: 7d7f f23c 1c10 23be 8e32 38be c45e d63c
000002a0: 86dd 1f3d b778 44bd 2364 5bbe d36f 0bbe
000002b0: 8995 c9bd e6df 253d 8a67 9ebd 5fe6 41bd
000002c0: c29c b83c 2591 84bd 3f1a aebd 0bd0 56bd
000002d0: c19b 85bd 0ad2 e2bd e483 803d 3b7e a93d
000002e0: c088 9ebd 57ca 1c3e efba e93c ffbd dfbb
000002f0: 0a47 50be 77ed 023d 32d9 bbbd 367d 93bc
00000300: ef2e 3fbd 5d46 b3bc e7cd 3bbc 9b54 0d3d
00000310: 91bd 213c 7858 f7bd 40ab 653d 2d41 003d
00000320: 46eb 82bd 7983 22bd 558e 8ebe e9f5 34bd
00000330: b8bf c2b9 9ed2 8abd 281c f63c 0a04 a33d
00000340: 87ae bbbd 075f a6bd e321 e9bc 410a d83c
00000350: a43b a9bd 044d 8bbd dcd0 cb3d 83a7 3cbc
00000360: 55f7 97bd 3993 383d 12b8 a7bd f01a 213c
00000370: 11fa e63d dbc8 1c3e 2c42 a0bd 944e edbd
00000380: 726a 16be 5bdd 56be 01ac 3d3d 6fa6 cabd
00000390: f2cd d0be fef0 b03e 26f0 a6be c00a b5be
000003a0: 61d2 65be 05ac 613c acaf 95be 4b60 9bbd
000003b0: f138 a3bd 4cfe 11bd 901e 093e 2d2f 74be
000003c0: df05 87bc ad1a c83b fcc5 71be 8627 37be
000003d0: 2b55 3e3c 98aa 4fbc 9665 1e3d 2d5a 12bc
000003e0: c1d5 213b 0157 2cbd 7dfe c3bc da0f 123e
000003f0: 0cf0 31be 0070 a33d 9c18 003d 651b 16bd

fc.0.bias f4 [128]
0.061751604 0.12433009 -0.0989124 0.0041378555 -0.21656303 -0.10320965 -0.025043726 -0.017182766
-0.24926357 -0.037738346 -0.24088277 0.030258648 -0.042991668 -0.13276213 -0.112818815 0.098785445
-0.04504908 0.023765903 -0.17811626 -0.0010097155 -0.025249504 -0.042390894 0.12253034 0.01253074
0.00896131 0.12618396 -0.12566662 -0.07291246 -0.16970941 0.15533559 -0.06293363 0.043558914
-0.1328178 -0.0025446217 0.04209551 -0.12753132 0.013986781 -0.032682166 -0.15598683 0.047264524
-0.08934673 -0.10893219 0.030334102 -0.22998454 -0.032178506 -0.019053282 -0.035017844 -0.021845825
-0.08840248 0.007986092 -0.0952031 -0.08805987 -0.023228068 -0.076342106 0.063035786 0.022929618
-0.0042402456 -0.028875932 -0.024633413 -0.17265137 -0.015553966 -0.09136877 0.09168954 -0.084673904
0.03605471 0.09023967 0.06973764 -0.14941588 0.027862584 -0.007529285 -0.28822407 -0.103808865
-0.029230485 0.019638445 -0.2296453 0.05030647 0.15190402 -0.084236205 -0.0036231496 0.11342722
-0.103461705 -0.03037173 0.028209023 0.015730867 -0.21854563 -0.12796253 -0.12572286 -0.027372453
-0.0524768 -0.0640375 -0.08432802 0.11782385 -0.07875127 -0.11178636 0.040513977 0.024224691
-0.044507142 -0.052001156 0.011975747 0.019269895 0.019982604 -0.16371538 -0.28333142 0.02286673
0.10649567 -0.3117935 0.06531197 -0.14451869 -0.07107333 -0.21079263 -0.080593824 -0.09459163
-0.061772067 -0.098993495 -0.10451344 -0.1415489 -0.03439403 -0.10819333 -0.05169974 -0.14030142
0.0328348 -0.046268895 -0.02576034 -0.028044943 0.054671023 -0.028507771 -0.29252818 -0.08723849
00000000: 40ef 7c3d c6a0 fe3d 9692 cabd d996 873b
00000010: b3c2 5dbe 955f d3bd 8028 cdbc dfc2 8cbc
00000020: f33e 7fbe 8693 1abd f9a9 76be fce0 f73c
00000030: 0818 30bd ccf2 07be 8d0d e7bd 0650 ca3d
00000040: 6285 38bd b6b0 c23c 1c64 36be 6e58 84ba
00000050: 0cd8 cebc 13a2 2dbd 30f1 fa3d bc4d 4d3c
00000060: 75d2 123c 5e36 013e c0ae 00be 2153 95bd
00000070: 4ec8 2dbe 4b10 1f3e 59e3 80bd d56a 323d
00000080: 6401 08be abc3 26bb 576c 2c3d 9297 02be
00000090: d028 653c bcdd 05bd 03bb 1fbe 7298 413d
000000a0: 6bfb b6bd d717 dfbd 397f f83c 1181 6bbe
000000b0: 9ccd 03bd a115 9cbc df6e 0fbd 04f6 b2bc
000000c0: 5c0c b5bd 19d8 023c d8f9 c2bd bc58 b4bd
000000d0: ca48 bebc 4059 9cbd e818 813d e5d6 bb3c
000000e0: c2f1 8abb 388d ecbc 03cc c9bc 85cb 30be
000000f0: 10d6 7ebc 8d1f bbbd bac7 bb3d 8369 adbd
00000100: 1bae 133d 93cf b83d 9cd2 8e3d 7a00 19be
00000110: 1340 e43c 38b8 f6bb 1b92 93be be99 d4bd
00000120: c574 efbc cee0 a03c 2328 6bbe 280e 4e3d
00000130: ba8c 1b3e 0884 acbd 5d72 6dbb 884c e83d
00000140: bbe3 d3bd 22ce f8bc 9c16 e73c 05de 803c
00000150: 6dca 5fbe 9c08 03be 7ebd 00be 323c e0bc
00000160: eaf1 56bd 1826 83bd 2bb4 acbd a14d f13d
00000170: 5948 a1bd 3ff0 e4bd fcf1 253d dc72 c63c
00000180: 1f4d 36bd 2aff 54bd ec35 443c e6db 9d3c
00000190: 8fb2 a33c 01a5 27be d110 91be 0253 bb3c
000001a0: 671a da3d 66a3 9fbe 48c2 853d b5fc 13be
000001b0: e58e 91bd 06da 57be 600e a5bd 42b9 c1bd
000001c0: b504 7dbd 1abd cabd 240b d6bd 32f2 10be
000001d0: c1e0 0cbd 7794 ddbd 1bc3 53bd 2dab 0fbe
000001e0: c97d 063d 7484 3dbd 5907 d3bc 82be e5bc
000001f0: b9ee 5f3d 2189 e9bc 41c6 95be 18aa b2bd

fc.3.weight f4 [64, 128]
-0.66245383 -0.748147 -0.13701881 0.17140263 0.7484886 -0.29417223 -0.068636395 0.018179847
0.764861 -0.14376193 -0.12074886 0.022758523 -0.05099658 -0.3629 -0.3469658 0.12833983
-0.6958696 -0.03446096 -0.044110864 0.14439423 -0.06511872 -0.053838003 -0.04942317 0.019587426
0.4339258 0.48205477 0.08828418 0.050827164 0.38851196 0.18807234 -0.07577426 0.07313909
-0.14405842 0.09668513 -0.06732161 -0.19658026 0.18590273 -0.18720827 -0.36328927 -0.042284798
-0.14826931 0.15157661 -0.029814515 -1.3169758 0.10729083 0.55989283 -0.16746624 0.5168817
-0.7561765 -0.077779986 -0.023168897 0.07764743 -0.46922502 -0.7702725 0.028394246 0.09578353
-0.056335572 -0.24262136 0.4582591 -0.06471657 -0.25759822 0.036712267 0.018138653 0.11306855
0.012976748 -0.002011489 -0.17875929 -0.5471952 -0.20584258 0.20324202 0.18220173 -0.103810236
0.06487056 -0.13348493 0.84947824 0.09125306 0.11219689 0.18919505 -0.17708181 0.185626
0.37933782 0.03144756 0.043458298 0.11220435 -1.0355605 -0.5872091 0.22617051 -0.83616257
-0.08920563 0.056304853 -0.041727856 -0.094983466 -0.2398648 -0.21479766 0.47985345 0.25045222
-0.08249603 -0.16309015 -0.4882149 -0.20127182 -0.0061042216 0.41463253 0.5558151 -0.17317556
-0.113936245 0.5383066 0.048838206 -0.029201988 -0.10489877 -0.20569481 -0.041871592 0.16496518
0.16060321 -0.08395444 -0.009212803 0.5565847 -0.31465563 0.13821784 0.0017342978 -0.25103194
0.049553353 -0.6741271 0.5716755 -0.09374196 -0.48588446 -0.5158554 0.507752 0.03710109
-0.2137376 -0.25851125 0.47336683 0.19329666 -0.14411001 -0.006468323 -0.011607059 -0.2410204
-0.53794473 -0.40401924 0.04455352 -0.12593782 -0.10027806 -0.22370712 0.04786549 -0.033056676
0.084300615 -0.02156706 -0.24720381 -0.03454984 0.27300206 0.003632931 -0.010283299 -0.04764349
0.08449925 0.09597266 -0.043193407 -0.2975436 -0.14011519 -0.085652456 -0.060853306 0.37922582
0.5640656 -0.0017403055 -0.13611828 0.23703782 0.034515932 -0.15141323 -0.15108186 0.26746312
-0.057692397 -0.4951627 -0.030023463 -0.32557505 0.08215023 0.11072489 0.22856367 0.007843092
-0.059829805 -0.36318246 -0.19763927 0.0050523123 0.11404177 -0.23455441 -0.2312942 -0.11005825
-0.14806522 0.01908788 0.019249458 0.069536835 0.15171549 -0.037097696 -0.28908953 -0.030750958
0.0020504107 0.20551836 -0.066097654 0.0900857 -0.08247614 -0.123229325 -0.2566672 0.28147054
0.31111225 0.16270745 -0.16502047 0.0487631 -0.09321687 -0.3007352 -0.12065397 0.027597995
0.32838395 0.054197617 -0.03645444 -0.102214046 -0.22349887 -0.2954147 -0.056387864 -0.16716091
0.015644886 -0.12440356 0.2371576 -0.18569252 0.04837712 -0.2144534 -0.00042950778 -0.014740147
-0.22658001 -0.4175915 0.21565528 0.353475 0.0073588705 0.6193146 -0.14464472 -0.16526122
-0.15553854 -0.18684936 0.04575283 -0.12949203 0.20225464 0.213458 0.015290501 -0.009239337
-0.33061188 0.07978578 -0.23986048 0.13845348 0.1364451 -0.36583 0.009878518 0.15280434
0.18035284 0.026403392 0.2538907 0.1356567 0.16872033 -0.087626114 -0.4204649 -0.16037184
00000000: 9396 29bf 9086 3fbf a94e 0cbe 2c84 2f3e
00000010: f39c 3f3f be9d 96be 3d91 8cbd e7ed 943c
00000020: eecd 433f 5436 13be 2e4b f7bd 1570 ba3c
00000030: cae1 50bd 07ce b9be 80a5 b1be 846b 033e
00000040: 8324 32bf f026 0dbd 98ad 34bd 15dc 133e
00000050: f75c 85bd 3d85 5cbd f36f 4abd cf75 a03c
00000060: 862b de3e e2cf f63e 56ce b43d 2530 503d
00000070: 0aeb c63e 0996 403e 892f 9bbd f2c9 953d
00000080: 0d84 13be da02 c63d eadf 89bd 564c 49be
00000090: 495d 3e3e 86b3 3fbe 0d01 babe d332 2dbd
000000a0: e9d3 17be e636 1b3e 923d f4bc aa92 a8bf
000000b0: 4bbb db3d 2355 0f3f 457c 2bbe 5c52 043f
000000c0: c894 41bf 1d4b 9fbd b3cc bdbc 9e05 9f3d
000000d0: 433e f0be 9430 45bf 0d9b e83c 282a c43d
000000e0: 21c0 66bd bc71 78be f0a0 ea3e 1f8a 84bd
000000f0: eae3 83be 9a5f 163d 8397 943c 7c90 e73d
00000100: 6d9c 543c 2fd3 03bb ad0c 37be fc14 0cbf
00000110: 66c8 52be ad1e 503e 1793 3a3e 769a d4bd
00000120: dbda 843d 46b0 08be 6877 593f e2e2 ba3d
00000130: 7cc7 e53d 59bc 413e ef54 35be be14 3e3e
00000140: 9138 c23e 28cf 003d 5401 323d 65cb e53d
00000150: 3f8d 84bf 5653 16bf 3e99 673e c00e 56bf
00000160: 71b1 b6bd eb9f 663d d4ea 2abd b186 c2bd
00000170: 1e9f 75be ebf3 5bbe 5aaf f53e 463b 803e
00000180: aef3 a8bd 1b01 27be 4ef7 f9be 331a 4ebe
00000190: ec05 c8bb b74a d43e e649 0e3f ef54 31be
000001a0: 6857 e9bd 76ce 093f 920a 483d 0239 efbc
000001b0: 2bd5 d6bd a9a1 52be 8c81 2bbd a2ec 283e
000001c0: 2b75 243e 4ef0 abbd 4cf1 16bc 567c 0e3f
000001d0: 8b1a a1be fa88 0d3e 6151 e33a 4287 80be
000001e0: 75f8 4a3d 9893 2cbf 5359 123f c9fb bfbd
000001f0: d9c5 f8be 190f 04bf 09fc 013f 50f7 173d
00000200: 08de 5abe 965b 84be 235d f23e 8fef 453e
00000210: 9391 13be 3af4 d3bb 892b 3ebc 0dce 76be
00000220: bfb6 09bf 9cdb cebe c07d 363d d8f5 00be
00000230: 955e cdbd 7b13 65be 9b0e 443d 7066 07bd
00000240: cda5 ac3d 67ad b0bc ff22 7dbe 2284 0dbd
00000250: edc6 8b3e 7816 6e3b 487b 28bc d225 43bd
00000260: f10d ad3d 508d c43d 92eb 30bd a257 98be
00000270: 5b7a 0fbe 8e6a afbd 5141 79bd e329 c23e
00000280: 9a66 103f f61a e4ba 9762 0bbe 0bba 723e
00000290: 9460 0d3d 120c 1bbe 34b5 1abe edf0 883e
000002a0: dd4e 6cbd f785 fdbe c4f3 f5bc c6b1 a6be
000002b0: 613e a83d bbc3 e23d 980c 6a3e 5080 003c
000002c0: 1910 75bd 0df3 b9be f361 4abe de8d a53b
000002d0: bb8e e93d 082f 70be 63d8 6cbe 3866 e1bd
000002e0: 699e 17be 305e 9c3c 0ab1 9d3c 5469 8e3d
000002f0: 4e5b 1b3e c1f3 17bd 8b03 94be 6fe9 fbbc
00000300: 2f60 063b 6873 523e 355e 87bd da7e b83d
00000310: 40e9 a8bd a85f fcbd e269 83be e81c 903e
00000320: 1b4a 9f3e c89c 263e 20fb 28be d1bb 473d
00000330: 7de8 bebd f7f9 99be 6e19 f7bd 3115 e23c
00000340: f121 a83e 52fe 5d3d 4051 15bd 9955 d1bd
00000350: e3dc 64be 9840 97be f6f6 66bd 3b2c 2bbe
00000360: b429 803c 4bc7 febd 71d9 723e 2e26 3ebe
00000370: 1627 463d ac99 5bbe 8f2f e1b9 a880 71bc
00000380: 9704 68be 8ece d5be bdd4 5c3e adfa b43e
00000390: ae22 f13b 678b 1e3f bf1d 14be 3d3a 29be
000003a0: 7f45 1fbe 7055 3fbe 5267 3b3d 8f99 04be
000003b0: d71b 4f3e bc94 5a3e 0285 7a3c 9760 17bc
000003c0: f645 a9be ba66 a33d fc9d 75be c0c6 0d3e
000003d0: 44b8 0b3e 124e bbbe 82d9 213c be78 1c3e
000003e0: 6aae 383e ed4b d83c f6fd 813e 97e9 0a3e
000003f0: 06c5 2c3e 5275 b3bd 2d47 d7be 8438 24be

fc.3.bias f4 [64]
0.0824438 0.16528963 0.069219895 0.22547673 0.1488397 0.18266372 0.16351871 0.10572292
0.08229955 0.12167283 0.21095192 0.24702665 0.28416446 0.09579285 0.12623696 0.06664508
0.1295332 0.11250416 0.1376008 0.07975262 0.1193055 0.15251999 0.13360097 -0.12782986
0.27374944 0.07315003 0.11179846 0.17240836 0.15326157 0.19402169 0.14549142 0.121640705
0.19105124 0.20376043 0.15563387 0.21601361 0.19523102 0.04642001 0.13050434 0.21580978
0.22834921 -0.052213572 0.2294718 0.16221067 -0.09569148 0.09935065 0.14148474 0.20451699
0.16946933 0.13985392 0.14916962 0.10402422 0.028818658 0.072636 0.08875206 0.2305426
0.16690996 -0.013796583 0.020272084 0.13165037 0.12947783 0.13322593 0.0953184 0.13427511
00000000: 4cd8 a83d af41 293e 29c3 8d3d 5fe3 663e
00000010: 6f69 183e 330c 3b3e 7371 273e 4285 d83d
00000020: ab8c a83d 9b2f f93d c803 583e 8ef4 7c3e
00000030: 017e 913e 0b2f c43d 4344 013e 377d 883d
00000040: 5aa4 043e 9568 e63d 39e7 0c3e 5755 a33d
00000050: 7156 f43d 332e 1c3e b1ce 083e d5e5 02be
00000060: e328 8c3e afcf 953d 97f6 e43d d18b 303e
00000070: 9af0 1c3e 9fad 463e b4fb 143e c31e f93d
00000080: f0a2 433e 93a6 503e 7c5e 1f3e ac32 5d3e
00000090: a4ea 473e e922 3e3d eea2 053e 3dfd 5c3e
000000a0: 60d4 693e e6dd 55bd a8fa 6a3e 8e1a 263e
000000b0: e5f9 c3bd 5b78 cb3d 60e1 103e e76c 513e
000000c0: 5e89 2d3e de35 0f3e ecbf 183e a60a d53d
000000d0: 1b15 ec3c 2fc2 943d a4c3 b53d 5c13 6c3e
000000e0: 72ea 2a3e 100b 62bc a411 a63c 5bcf 063e
000000f0: d695 043e 616c 083e 4b36 c33d 6a7f 093e

fc.6.weight f4 [6, 64]
-0.42890522 -2.6488364 -0.12811804 -0.6065997 -2.5915158 0.09594746 -0.44911322 0.18768
0.25838104 -0.41244167 -3.5108593 0.21926591 -0.19304909 0.28733483 -0.3575477 0.21558858
-0.5838058 -0.21952786 -0.31360605 -0.049386963 -2.3752663 -3.349652 0.15903337 -0.13638356
-0.2966904 0.037866227 0.25591734 0.23822013 0.2283491 -0.5115215 -3.4299707 -0.2503912
-0.63276404 -4.45874 0.2552037 -7.545729 -3.5542803 -1.8885026 -0.48950163 -0.9166057
-0.34213144 0.19908 -0.16499078 -2.3802478 0.17094348 0.17015922 0.19830938 -0.84538716
-2.3390794 -0.4841555 0.14267224 -0.23646104 0.1665764 -1.7103999 0.17989956 0.19852205
0.13680755 0.1825471 -0.19826846 -3.3451633 -0.6533596 -0.287131 0.26436073 -0.08394092
0.06947488 0.1363873 -0.1339354 0.079478696 0.022641953 -0.30476838 0.13005792 0.023025105
0.08348921 0.07394971 -0.070512384 0.079892255 0.009873656 -0.18113618 -0.1587892 0.013684683
-0.19120362 -0.100855246 0.09143351 -0.026295288 -0.06676924 -0.010211298 0.06084259 0.038848706
0.101748616 -0.38773397 0.07677167 0.007978717 0.16346923 0.1111917 0.032424334 0.028985929
-0.15375414 0.0058596614 0.09196473 -0.030690592 0.0752833 0.12308709 -0.11944441 0.123457916
0.099429555 -0.15088265 0.042178873 0.025102792 -0.27479503 -0.04743969 -0.011929545 0.09231572
0.17580687 -0.18057807 -0.1316922 0.01020348 -0.081553556 0.13786769 -0.17496288 0.024720501
-0.124136865 -0.17689423 0.062864535 0.1540871 -0.004133896 0.12519285 0.11521282 -0.17590748
-0.58020014 0.09025768 -0.038890734 0.077968426 0.17137939 -0.043995954 0.08732636 -0.1505907
0.11802787 0.10026859 0.030416617 -0.070011094 -0.06778404 0.063437626 0.102080874 -0.43333912
0.0716541 0.00846744 -0.08411774 -0.14750642 0.09792592 -0.015833966 -0.1700394 0.025516134
0.015701042 -0.17691024 -0.051285513 -0.19034214 -0.09270262 0.14116232 0.14817673 -0.3962045
0.18620752 0.042455528 -0.10295082 0.08485559 0.07124235 0.15494673 0.13834505 0.088343665
0.015290271 -0.14813745 -0.39455694 0.12132074 0.09904941 -0.27449 -0.27684775 0.020576429
0.15389085 0.09936171 -0.31284025 -0.35065597 -0.21362129 0.1364991 0.055499576 -0.18576513
-0.2572614 -0.1282093 -0.69855064 0.11561155 -0.19152993 0.100736015 0.07011076 -0.26377025
0.0824347 -1.0442926 -0.2820039 0.09287108 -2.0611093 0.052145217 -1.3402121 0.062340714
-1.5471549 0.27913857 -2.4754808 0.14535272 0.12130887 -0.23852274 0.18723083 0.08714815
0.13603084 0.18750256 -0.2720677 -0.32039222 -1.6048881 -2.657454 -0.3628718 0.025149476
-0.546692 0.01601605 -0.43488505 0.042941213 -0.32134184 0.34298044 -1.5694889 0.18952072
0.16795667 -3.2404695 -0.37996468 -4.179912 -2.468845 -2.4834523 0.19525303 0.32198986
0.15099175 -0.3105966 0.06413936 -2.8969254 0.11362843 -0.218232 0.111372925 0.13071871
-2.9501987 0.20906623 0.07426868 0.10555715 -0.0875509 0.2747867 -0.6949723 0.08986261
-0.18039218 0.090515904 -0.22978418 -2.6451569 0.09651179 -0.9200626 -0.50219434 0.021867763
00000000: 7799 dbbe 8986 29c0 6031 03be 1e4a 1bbf
00000010: 65db 25c0 1a80 c43d 2bf2 e5be 302f 403e
00000020: 854a 843e 8e2b d3be ebb1 60c0 3e87 603e
00000030: a9ae 45be 8d1d 933e 7e10 b7be 41c3 5c3e
00000040: 4c74 15bf e9cb 60be f990 a0be fc49 4abd
00000050: 5d04 18c0 b360 56c0 a5d9 223e 22a8 0bbe
00000060: cee7 97be 9e19 1b3d 9907 833e faef 733e
00000070: 59d4 693e 13f3 02bf a484 5bc0 4633 80be
00000080: d3fc 21bf 00ae 8ec0 0faa 823e 9d76 f1c0
00000090: 5479 63c0 74ba f1bf f59f fabe aca6 6abf
000000a0: da2b afbe a1db 4b3e 58f3 28be fb55 18c0
000000b0: cf0b 2f3e 383e 2e3e 9d11 4b3e 4b6b 58bf
000000c0: 7ab3 15c0 3be3 f7be ac18 123e d822 72be
000000d0: 0193 2a3e 62ee dabf 9737 383e 5d49 4b3e
000000e0: 4717 0c3e a1ed 3a3e e306 4bbe 2817 56c0
000000f0: 9342 27bf d602 93be 4a5a 873e 38e9 abbd
00000100: d948 8e3d 1da9 0b3e 5d26 09be bac5 a23d
00000110: 9e7b b93c 9a0a 9cbe e72d 053e 259f bc3c
00000120: 64fc aa3d f272 973d cc68 90bd 8d9e a33d
00000130: 1dc5 213c c37b 39be a399 22be b835 603c
00000140: e2ca 43be 328d cebd 7e41 bb3d 3769 d7bc
00000150: 50be 88bd 4a4d 27bc 1436 793d d21f 1f3d
00000160: 9461 d03d 1185 c6be 773a 9d3d 2ab9 023c
00000170: 7a64 273e 79b8 e33d 61cf 043d e673 ed3c
00000180: ba71 1dbe 6702 c03b 0158 bc3d d66a fbbc
00000190: 212e 9a3d 1615 fc3d 459f f4bd 81d7 fc3d
000001a0: b9a1 cb3d fb80 1abe c1c3 2c3d 5fa4 cd3c
000001b0: efb1 8cbe 1f50 42bd 2374 43bc 0610 bd3d
000001c0: b706 343e 75e9 38be 52da 06be 7f2c 273c
000001d0: 8d05 a7bd 302d 0d3e 7829 33be a682 ca3c
000001e0: 783b febd c323 35be 1fbf 803d 02c9 1d3e
000001f0: a275 87bb 8e32 003e b3f4 eb3d 1721 34be
00000200: ff87 14bf 05d9 b83d e44b 1fbd e9ad 9f3d
00000210: 147e 2f3e 1a35 34bd 2ad8 b23d 7334 1abe
00000220: 99b8 f13d 9e59 cd3d 452c f93c fa61 8fbd
00000230: 5cd2 8abd 96eb 813d c70f d13d a0de ddbe
00000240: 63bf 923d 04bb 0a3c ec45 acbd ec0b 17be
00000250: 628d c83d 3cb6 81bc cf1e 2ebe 3607 d13c
00000260: 799f 803c f527 35be c210 52bd 0de9 42be
00000270: dfda bdbd db8c 103e a4bb 173e 51db cabe
00000280: 2fad 3e3e d9e5 2d3d e1d7 d2bd c4c8 ad3d
00000290: 82e7 913d 5baa 1e3e 53aa 0d3e 86ed b43d
000002a0: 0b84 7a3c 58b1 17be 5e03 cabe 0277 f83d
000002b0: 6bda ca3d f489 8cbe fdbe 8dbe e68f a83c
000002c0: 9095 1d3e 277e cb3d 992c a0be 2e89 b3be
000002d0: 8abf 5abe 6cc6 0b3e 8653 633d 3739 3ebe
000002e0: c4b7 83be 4c49 03be 37d4 32bf c0c5 ec3d
000002f0: 6c20 44be af4e ce3d 3b96 8f3d e50c 87be
00000300: 86d3 a83d 61ab 85bf d162 90be 3133 be3d
00000310: 37e9 03c0 3996 553d 128c abbf fa58 7f3d
00000320: 2c09 c6bf 40eb 8e3e 476e 1ec0 58d7 143e
00000330: c970 f83d 4e3f 74be 70b9 3f3e bb7a b23d
00000340: ab4b 0b3e ac00 403e 754c 8bbe 730a a4be
00000350: f96c cdbf ba13 2ac0 55ca b9be 4606 ce3c
00000360: 02f4 0bbf 1734 833c 41a9 debe 20e3 2f3d
00000370: eb86 a4be 229b af3e 03e5 c8bf b811 423e
00000380: d5fc 2b3e da63 4fc0 bb8a c2be d7c1 85c0
00000390: 8e01 1ec0 e2f0 1ec0 69f0 473e dbdb a43e
000003a0: 959d 1a3e 8406 9fbe 7f5b 833d 3a67 39c0
000003b0: 06b6 e83d 3678 5fbe 7d17 e43d 20db 053e
000003c0: 0ed0 3cc0 7515 563e 2d1a 983d 592e d83d
000003d0: e34d b3bd d8b0 8c3e b4e9 31bf e309 b83d
000003e0: bab8 38be 6760 b93d 8b4c 6bbe 404a 29c0
000003f0: f9a7 c53d 3989 6bbf cf8f 00bf 0624 b33c

fc.6.bias f4 [6]
-0.18974148 -0.048363876 0.30064285 0.30006284 -0.43755564 -0.38486877
00000000: 974b 42be 3319 46bd dced 993e d6a1 993e
00000010: 4b07 e0be 850d c5be
