artifacts/hgae_temporal.pth (torch, 144456 bytes, 7 tensors)

cnn.0.weight f4 [64, 50, 3]
0	0xbcffe531	-0.031237217
1	0x3c5e225d	0.0135579975
2	0xbf3fccfc	-0.74922156
3	0x3c950504	0.018190868
4	0x3dbcd32c	0.09219965
5	0x3ea31462	0.31851488
6	0x3cab531f	0.020913659
7	0x3bc9357d	0.0061404095
8	0xbdd34321	-0.10315538
9	0x3cc92770	0.024554938
10	0xbed55ae8	-0.41670918
11	0xbf218d12	-0.6310588
12	0xbc24fcb1	-0.010070012
13	0x3dd71bb1	0.105033286
14	0x3c3d70d9	0.0115625495
15	0x3cd754db	0.02628558
16	0xbd7c0eda	-0.0615376
17	0xbc797d5c	-0.015227642
18	0x3a591bcc	0.0008282035
19	0x3e1ce7d3	0.15322809
20	0xbd4a1584	-0.049336925
21	0x3d368952	0.044564553
22	0x3ceeb060	0.029136837
23	0xbf0c9e32	-0.54928887
24	0xbd90d997	-0.07072752
25	0x3c9677d7	0.018367691
26	0x3eb3fa35	0.3515183
27	0x3d53907e	0.05165147
28	0x3e64564e	0.22298548
29	0x3f677f35	0.9042848
30	0xbc580da3	-0.013186845
31	0x3e5f64f2	0.21815851
32	0xbf91f1dc	-1.1401935
33	0xbd63e5c0	-0.05563903
34	0x3f3c68d7	0.7359747
35	0x3d87a0db	0.066224776
36	0xbd4f7cca	-0.050656117
37	0x3e889445	0.2667562
38	0xbfa1433f	-1.2598647
39	0xbd5bbb86	-0.053645633
40	0xbe43e4fb	-0.19130318
41	0xbfd400e5	-1.6562773
42	0xbab5d9ef	-0.0013874153
43	0x3cf09fa2	0.029372994
44	0xbcaf800b	-0.02142336
45	0xbcc420b6	-0.023941379
46	0x3e2d6e2d	0.1693656
47	0x3ec0448d	0.375523
48	0x3d302551	0.043004338
49	0x3e3b8d67	0.1831566
50	0x3f005b55	0.5013936
51	0x3d1f2090	0.038849413
52	0xbd2a4baa	-0.041576065
53	0x3e2469a4	0.16055924
54	0xbc6aa2b8	-0.014321022
55	0xbd241deb	-0.040067594
56	0xbe00dfab	-0.12585323
57	0xbaf8a659	-0.0018970474
58	0xbce6b991	-0.028164657
59	0xbd19c631	-0.037542526
60	0xbdcbf88a	-0.099595144
61	0x3e20a1e7	0.15686761
62	0x3e17f72d	0.14840384
63	0x3ab9d306	0.001417727
64	0xbe19d83a	-0.1502389
65	0xbe23f30f	-0.16010688
66	0x3c83f8d3	0.01610986
67	0xbe57ae1f	-0.21062516
68	0xbe975c76	-0.2956273
69	0xbc01c328	-0.007920064
70	0xbd60689e	-0.05478727
71	0xbe6983f0	-0.22804236
72	0xbb90e807	-0.004422191
73	0xbd12a31c	-0.035800084
74	0xbd34be78	-0.044126958
75	0xbd4a10c2	-0.049332388
76	0x3d0ec80e	0.034858756
77	0xbf0ab63e	-0.5418433
78	0x3cef35e2	0.029200498
79	0x3cb1ab82	0.021688227
80	0xbe09677b	-0.13418381
81	0xbbe37a04	-0.0069420356
82	0x3d8a6dd3	0.067592286
83	0xbe6aa180	-0.2291317
84	0x3cf96b4b	0.03044667
85	0x3e5baf9e	0.21453711
86	0xbe88a27e	-0.26686472
87	0x3d9580ab	0.07299932
88	0x3e844a04	0.2583772
89	0xbd8b7a19	-0.06810398
90	0xbda434d3	-0.08017888
91	0x3d360b3a	0.0444443
92	0xbd4721dc	-0.048616275
93	0xbbe30c96	-0.0069289906
94	0xbe2538b1	-0.16134907
95	0x3d3cff0b	0.046141665
96	0x3aad0e19	0.0013203054
97	0x3dbb5df0	0.091487765
98	0x3e6fa704	0.23403555
99	0xbdb016ef	-0.08598124
100	0x3e30efa3	0.17278914
101	0xbf40d10c	-0.7531898
102	0xbcc00833	-0.02344141
103	0x3d182564	0.037145033
104	0xbf1cf80f	-0.6131601
105	0xbdbda472	-0.09259881
106	0x3ea45440	0.32095528
107	0xbf15a750	-0.58458424
108	0x3cc15ac6	0.023602854
109	0x3c2aa71e	0.01041582
110	0xbef3fa17	-0.4765174
111	0xbd9d2354	-0.07672754
112	0x3eb9935d	0.36245242
113	0xbeb784ca	-0.35843498
114	0x3c913e10	0.017729789
115	0x3e36da76	0.17856774
116	0xbc8435ad	-0.016138876
117	0x8005f021	-5.4532e-40
118	0x00057870	5.02382e-40
119	0x00055907	4.91114e-40
120	0x3d9f1343	0.07767346
121	0x3e8877d6	0.26653928
122	0x3cf67ddd	0.030089313
123	0xbd0c3a97	-0.034235563
124	0x3e737faf	0.23779176
125	0x3ee76350	0.45192957
126	0xbc6c0c27	-0.014407194
127	0x3e0d0ab0	0.13773608
128	0x3ea49bd2	0.3215013
129	0x3cda3b0c	0.026639484
130	0x3f442d3a	0.7663151
131	0x3ed2b599	0.41154173
132	0x3cd98350	0.026551872
133	0xbdef959a	-0.11698456
134	0xbf071656	-0.52768457
135	0xbdc3f5fb	-0.095684014
136	0x3e0045da	0.12526646
137	0x3ea8735a	0.32900506
138	0xbdb0614c	-0.08612308
139	0x3e86aed6	0.26305264
140	0xbfa198b0	-1.2624722
141	0x3bb9a7bf	0.005665749
142	0x3e0451e7	0.12921868
143	0x3c3edb09	0.011648902
144	0x3cd754db	0.02628558
145	0xbd8a4587	-0.067515425
146	0xbc797d5c	-0.015227642
147	0xbbe62bf3	-0.007024282
148	0xbe5621b7	-0.20911299
149	0xbf70ca25	-0.9405845
150	0x3ae70a8f	0.0017627048
151	0x3da366fc	0.07978627
152	0x3f0f601c	0.56006026
153	0x3c68e970	0.014215812
154	0xbc6082a6	-0.013703024
155	0x3ee3a458	0.44461322
156	0x3bb3432e	0.005470655
157	0x3dc88fd9	0.09793062
158	0xbdd0816e	-0.10180937
159	0x3c9f0cf2	0.019415352
160	0x3da8de0e	0.082454786
161	0xbe986c73	-0.2977024
162	0xbc6ef661	-0.0145851085
163	0x3d5bf306	0.053698562
164	0xbf58d212	-0.8469554
165	0xbda94933	-0.08265915
166	0xbd1be463	-0.038059603
167	0xba4bf4ca	-0.0007780312
168	0xbd366d6f	-0.044537958
169	0xbcbe87a2	-0.023258034
170	0xbf80b7bc	-1.0056071
171	0x3cbc58bb	0.022991529
172	0xbc355cf0	-0.011069521
173	0xbf117388	-0.5681691
174	0xbcc300e4	-0.023804136
175	0x3bc0cd52	0.005883851
176	0xbf8ae369	-1.085065
177	0x3bcc3475	0.0062318393
178	0xbc89aede	-0.016807016
179	0xc024fbba	-2.5778642
180	0xbc1871d2	-0.009304481
181	0x3d3b1ffa	0.045684792
182	0x3c17b017	0.009258292
183	0xbc38ed1d	-0.011287001
184	0xbe625cd4	-0.22105724
185	0x3f4b5358	0.7942405
186	0x3cc76b25	0.024343083
187	0x3d3f9815	0.046775896
188	0x3e3603cd	0.17774887
189	0x3cb5e67c	0.02220463
190	0x3e095b31	0.13413693
191	0xbd1eeb15	-0.03879841
192	0x39b14ff5	0.00033819643
193	0xbd58f201	-0.052965168
194	0x3ddf4d41	0.10903407
195	0xbb888736	-0.004166509
196	0x3cd8ae18	0.026450202
197	0xbd5d76d9	-0.05406842
198	0xbca83ce6	-0.020536851
199	0x3d9671be	0.07345913
200	0xbdc532e9	-0.09628851
201	0x3d27eb9b	0.040996175
202	0x3df5310c	0.119722456
203	0xbed18ffd	-0.40930167
204	0xbce16728	-0.027515009
205	0xbdda569b	-0.1066105
206	0xbeebf208	-0.46083093
207	0x3c39828e	0.011322631
208	0xbe4da33b	-0.20081799
209	0xbe488ded	-0.1958539
210	0xbc84deba	-0.016219486
211	0x3cf0477b	0.02933096
212	0x3ea4c6b0	0.32182837
213	0xbd9289cb	-0.07155188
214	0x3d5d06e7	0.05396166
215	0xbf169bf2	-0.58831704
216	0xbd30a0b7	-0.04312202
217	0xba049566	-0.00050576625
218	0xbf35e201	-0.7104798
219	0x3cb7a9e9	0.022419887
220	0xbd400724	-0.04688181
221	0xbef06078	-0.469486
222	0x3c8899b1	0.016674848
223	0xbe529412	-0.20564297
224	0xbe5e7398	-0.21723783
225	0xb5ef2d58	-1.7820084e-06
226	0x3b85c5ef	0.0040824334
227	0x3daad79c	0.083419055
228	0x3d4b7a1e	0.049677007
229	0xbd839278	-0.06424421
230	0xbec85e4b	-0.3913444
231	0x3da02184	0.078188926
232	0x3af062d2	0.0018339998
233	0xbe9a1041	-0.30090526
234	0xbc9e5818	-0.019329116
235	0xbbcc0bd9	-0.0062269983
236	0x3d3c4238	0.04596159
237	0x3d128806	0.035774253
238	0xbb776b9d	-0.0037753351
239	0xbf25d1b9	-0.64773136
240	0x3cdd1171	0.026985856
241	0xbd6b288c	-0.057411715
242	0x3e40148a	0.18757835
243	0x3bae76a2	0.0053242007
244	0xbd67c716	-0.056586348
245	0x3e1097cf	0.1412041
246	0x39b07288	0.00033654668
247	0xbbd67417	-0.0065446007
248	0x3b978e4a	0.0046251165
249	0xbbd5ba63	-0.006522463
250	0x3cd0643b	0.025438419
251	0xbf855c13	-1.0418724
252	0x3c9ebc2c	0.019376837
253	0xbd9237fb	-0.07139584
254	0xbf062d75	-0.5241311
255	0xbdeae316	-0.114690945

cnn.0.bias f4 [64]
0	0xbdb2c5d0	-0.08729136
1	0x3ba1efb3	0.0049419045
2	0xbe8f6a2d	-0.28010693
3	0x3d75c92e	0.060006313
4	0x3c948e09	0.018134134
5	0xbc63deee	-0.013908131
6	0x3ba24597	0.0049521434
7	0xbd24fd56	-0.040280662
8	0x3c1c7eeb	0.009551744
9	0xbe6a99cf	-0.22910236
10	0x3def9816	0.1169893
11	0xbdceffb9	-0.10107369
12	0x3d94a7d8	0.07258576
13	0xbdcc1bce	-0.09966241
14	0xbdbd2854	-0.092362076
15	0xbd4b703e	-0.04966759
16	0xbc974187	-0.018463863
17	0x3cfb7681	0.030696156
18	0xbe1e5b44	-0.15464503
19	0xbd27aeed	-0.040938307
20	0xbe577271	-0.2103975
21	0xbe5430ec	-0.20721787
22	0xbe0a690f	-0.13516639
23	0xbda167ad	-0.07881103
24	0xbd6ff7a4	-0.058585778
25	0xba1bba36	-0.00059405284
26	0x8d551050	-6.565533e-31
27	0x3da8b2f2	0.08237256
28	0xbda15874	-0.07878199
29	0xbc1490a3	-0.009067687
30	0xbd3458eb	-0.04403011
31	0xbea5ec46	-0.32406825
32	0xbc5b349d	-0.013379243
33	0x3d20e144	0.03927733
34	0x3e09102a	0.13385072
35	0xbdbe29f4	-0.09285346
36	0xbdb5bc32	-0.08873786
37	0xbc20b1cb	-0.009808014
38	0x3d4db470	0.050220907
39	0x3d6df3b9	0.05809376
40	0xbc38ecb7	-0.011286906
41	0x3d819282	0.06326772
42	0x3dc2a853	0.095047615
43	0x3deb99ef	0.1150397
44	0xbd071e87	-0.032988098
45	0x3d7965f4	0.060888246
46	0xbd083274	-0.03325124
47	0x3cd7d47e	0.026346441
48	0x3d0a57c1	0.033775095
49	0x3ca54e22	0.020178858
50	0xbe3afadc	-0.18259758
51	0x3dabfdd8	0.08398026
52	0x3cad7559	0.02117412
53	0x3d815447	0.06314903
54	0xbdc64795	-0.09681622
55	0xbc90729e	-0.017632779
56	0xbcffce57	-0.03122632
57	0xab995236	-1.0894122e-12
58	0xbd903e31	-0.07043112
59	0x3b1d72fb	0.0024024833
60	0x3d8a674b	0.06757983
61	0x3dfdbdef	0.123897426
62	0xbcddb34a	-0.02706303
63	0x3d45acd2	0.048260517

cnn.3.weight f4 [128, 64, 3]
0	0xbe2e5cb6	-0.17027554
1	0xbda027f6	-0.07820122
2	0xbc1a4f76	-0.009418359
3	0xbf814a9a	-1.0100892
4	0xbe158ebf	-0.14605235
5	0xb9871db7	-0.00025771346
6	0xbdc1788d	-0.09446821
7	0xb97d0909	-0.00024131326
8	0xbc1e5430	-0.009663627
9	0xbe254075	-0.1613787
10	0xbc9cfb6f	-0.019162862
11	0xbc45c712	-0.012071388
12	0xbc36d985	-0.011160259
13	0xbea6c32e	-0.32570785
14	0xbca88229	-0.020569878
15	0x3d91ab0b	0.07112702
16	0x3d051846	0.032493852
17	0xbc4ffc19	-0.012694382
18	0xbe8bba28	-0.27290463
19	0x3a8ceafb	0.0010751182
20	0xb9dc3e9c	-0.00042008318
21	0xbcfedb73	-0.0311105
22	0xbf88e567	-1.0695008
23	0xba5b6379	-0.00083690096
24	0x3d030acb	0.031992715
25	0xbf961c61	-1.172741
26	0x399f2f38	0.00030362024
27	0xbee1da56	-0.4411189
28	0xbc9632da	-0.018334795
29	0xbd824b51	-0.06362022
30	0xbc821dd4	-0.015883364
31	0xbc83809d	-0.016052539
32	0xbb486d9b	-0.0030582908
33	0xbed4b925	-0.41547504
34	0xbf12e6f0	-0.5738363
35	0xbd449edb	-0.04800306
36	0xbe8ea16c	-0.2785753
37	0xbf55c274	-0.83499837
38	0xbc46b8dd	-0.012129036
39	0xbeea5847	-0.45770475
40	0xbee11750	-0.439631
41	0xbd281bed	-0.041042257
42	0x3c645704	0.013936762
43	0xbf186c05	-0.59539825
44	0xbc83ebcf	-0.016103653
45	0xbec2df24	-0.38060868
46	0x3df2b1d7	0.118503265
47	0xbd100fc4	-0.035171285
48	0x3c0ce919	0.008600497
49	0x3a5f0257	0.00085071236
50	0x80066d5b	-5.90242e-40
51	0xbecf7f76	-0.40526932
52	0x3dcfb6ae	0.10142265
53	0x3c25a18b	0.010109316
54	0x3d5c67b1	0.053809825
55	0xbef940ed	-0.48682347
56	0xbd2b0fa9	-0.04176298
57	0xbcc13bce	-0.023588087
58	0xbe20d25b	-0.15705244
59	0xbc70aab5	-0.014689137
60	0x3df4fd51	0.11962379
61	0xbdae2931	-0.085039504
62	0xbd429101	-0.047501568
63	0x3c1961f1	0.00936173
64	0x3e7fb70a	0.24972168
65	0xbadaeb74	-0.001670225
66	0xbe24ffba	-0.16113177
67	0xbf0fdf77	-0.56200355
68	0xbb5fae98	-0.0034131166
69	0xbd606194	-0.054780558
70	0xbf35a35c	-0.7095239
71	0x3c6021f8	0.013679974
72	0x3cd756c7	0.026286496
73	0xbed89ab4	-0.4230553
74	0xbb006cfb	-0.0019596207
75	0xbcd13a54	-0.025540508
76	0xbf35a451	-0.7095385
77	0x3d16b3a4	0.036792412
78	0x80055996	-4.91315e-40
79	0x0005d327	5.34925e-40
80	0x8005fdc4	-5.50211e-40
81	0x3c9fb672	0.019496176
82	0xbf30606b	-0.6889712
83	0xbc0b548e	-0.008504046
84	0xbd91a0f2	-0.07110776
85	0xbcea5ac8	-0.028607741
86	0xbc109a05	-0.008825784
87	0xbcf6cb72	-0.030126307
88	0xbf2d62be	-0.67728794
89	0xbc74d011	-0.014942185
90	0xbd535634	-0.05159588
91	0xbbcf5666	-0.006327438
92	0x1f981a9f	6.4418545e-20
93	0xbe079680	-0.13241005
94	0xba49bc67	-0.00076956156
95	0x3c661b46	0.014044588
96	0xbeb22464	-0.3479339
97	0x3e1ec26d	0.15503855
98	0xba988859	-0.0011637314
99	0x3d6f24df	0.058384772
100	0x3d7e93db	0.062152725
101	0xba897756	-0.0010487835
102	0xbdf3fae4	-0.11913088
103	0xbe9b45a6	-0.30326575
104	0xbce317b9	-0.027721273
105	0xbdff1c21	-0.12456537
106	0xbcbdc57c	-0.023165457
107	0x3a38d872	0.0007051296
108	0xbe4e689d	-0.20157094
109	0x3d6714ab	0.056416195
110	0x3a2767eb	0.00063860294
111	0xbd0a59d3	-0.03377707
112	0x3c400fd4	0.011722524
113	0x3cc4ea58	0.024037525
114	0x3e0da646	0.1383296
115	0x3e0ffa23	0.14060263
116	0xbbbe669d	-0.0058105723
117	0xbc8437a9	-0.016139822
118	0xbf084a75	-0.5323861
119	0x3c016833	0.007898378
120	0xbe47b9bc	-0.19504446
121	0xbeaeeb5b	-0.34163937
122	0xbcc03920	-0.02346474
123	0x3d54287f	0.051796433
124	0xbc071a6b	-0.008246045
125	0xbc7f3be8	-0.015578248
126	0xbd3a4ae6	-0.045481585
127	0xbea7ef00	-0.3279953
128	0xbc54d2a9	-0.012989678
129	0xbca40a36	-0.0200244
130	0xbbab3b85	-0.005225601
131	0xbca192c7	-0.01972331
132	0x3d5870d7	0.052841987
133	0x3cebfc15	0.028806726
134	0xbb6c3217	-0.0036040598
135	0xbe708ea4	-0.23491913
136	0x3d2b9086	0.041885875
137	0xbb90e423	-0.0044217273
138	0x3cdbfd49	0.026854174
139	0xbc8333d2	-0.01601592
140	0x8005657b	-4.95582e-40
141	0xbe5d2cd7	-0.21599136
142	0xbca48355	-0.020082155
143	0xbc42d706	-0.011892086
144	0xbe7d6b9c	-0.24748081
145	0x3bac0ddd	0.005250676
146	0xbcda77a2	-0.026668373
147	0x3c92d7f7	0.017925246
148	0x3d65fb79	0.056148026
149	0xbc8c0a18	-0.017094657
150	0xbdb7d646	-0.08976416
151	0xbf04beaf	-0.5185346
152	0xbc55dd4e	-0.013053251
153	0xbce4b18f	-0.027916698
154	0xbdfef51b	-0.12449094
155	0xbd8ef72a	-0.069807366
156	0xbceac6bf	-0.028659223
157	0xbe63593e	-0.22202012
158	0xba0f1c2e	-0.0005459216
159	0xbe1decf2	-0.15422419
160	0xbe2a2ca4	-0.16618592
161	0xb987aae7	-0.0002587654
162	0x3ccaa1e0	0.024735391
163	0xbe5944f8	-0.21217716
164	0xbb46d10d	-0.0030337006
165	0xbf2271bb	-0.6345479
166	0x3ba7f972	0.0051261717
167	0xbc29ee58	-0.010371767
168	0x3d01de03	0.031705867
169	0x3c8a96b3	0.016917562
170	0x0005a94a	5.19907e-40
171	0x00055bc6	4.921e-40
172	0x98c041f5	-4.9697436e-24
173	0x00055a24	4.91514e-40
174	0x3d10a7c4	0.035316244
175	0xbbc1a389	-0.0059093875
176	0xbbeecc13	-0.007287511
177	0xbe018d18	-0.12651479
178	0x3d7c0b9d	0.061534513
179	0x3ccc5a7a	0.024945486
180	0xbe56f104	-0.20990378
181	0xbd37c81d	-0.044868577
182	0xbbe94d22	-0.0071197907
183	0xbde66f55	-0.11251704
184	0xbebffce0	-0.37497616
185	0x3ae1dcb0	0.0017231908
186	0xbda14686	-0.078747794
187	0xbcea65ba	-0.02861296
188	0x39a8c6cc	0.00032191572
189	0xbd50b7ed	-0.050956655
190	0x3c0f1a4e	0.008734299
191	0xbadb7993	-0.0016744606
192	0xbdb43bea	-0.0880049
193	0xbd8c82f3	-0.06860914
194	0x3cab7a73	0.020932412
195	0xbe386db2	-0.18010595
196	0xbdb9a2da	-0.090642646
197	0x3c66d4f8	0.014088862
198	0xbe04c348	-0.12965119
199	0x3f8401a2	1.0312998
200	0x3cd5a1a3	0.026078051
201	0xbc9e669f	-0.019336043
202	0xbe4667ca	-0.1937553
203	0x3bee270a	0.0072678374
204	0xbed0458d	-0.40678063
205	0x3da4ae5e	0.080410704
206	0x3da59ac0	0.08086157
207	0xbe7658ac	-0.24057263
208	0x3d65074c	0.055915162
209	0x3c9fcd3f	0.019507049
210	0x3d178f82	0.037002094
211	0x3b37590d	0.0027976662
212	0x3c992422	0.018693987
213	0xb919ac01	-0.00014655293
214	0xbe51a1fd	-0.2047195
215	0x39db7b55	0.00041862825
216	0x3e539309	0.20661558
217	0xbe26ac21	-0.162766
218	0x3b5e3593	0.0033906444
219	0x3d926d6b	0.07149776
220	0x3d74506f	0.05964702
221	0x3d052240	0.032503366
222	0xbce498a9	-0.027904825
223	0xbf8b3973	-1.0876907
224	0xbc0ef8f1	-0.008726344
225	0xbbdd5888	-0.0067549385
226	0xbc9989d6	-0.018742483
227	0x3c665e35	0.014060547
228	0xbdc2dda1	-0.095149286
229	0xbb8d58e1	-0.0043135737
230	0x3d0beb10	0.03415972
231	0xbe0362e9	-0.128307
232	0x3ce5195c	0.027966194
233	0x3d0faa50	0.035074532
234	0xbe34c6c5	-0.1765395
235	0x3dc1053f	0.09424829
236	0x3c457012	0.012050645
237	0x3a306db1	0.00067302125
238	0x3c5762d4	0.013146121
239	0x3c26a330	0.010170743
240	0xbc3ef741	-0.01165563
241	0xbc429520	-0.0118763745
242	0x8005b9ad	-5.25785e-40
243	0xbe23ee05	-0.16008766
244	0xbc53202d	-0.012886089
245	0x3c11e4ea	0.008904675
246	0xbc7b90c9	-0.015354344
247	0x3f19157c	0.5979841
248	0xbcdd2a43	-0.026997691
249	0xbde45ab2	-0.11150111
250	0xbe00fecb	-0.12597196
251	0x3d104c09	0.035228763
252	0xbe09264e	-0.13393518
253	0x3f330f06	0.699448
254	0xbc103e46	-0.00880391
255	0xbe8d486d	-0.2759432

cnn.3.bias f4 [128]
0	0x3e763e6e	0.24047253
1	0x3e78d68d	0.24300595
2	0xbdb6518a	-0.08902271
3	0x3ee28d12	0.44248253
4	0x3e7b5ebc	0.24547857
5	0x3e92958a	0.28629714
6	0x3e4efb9d	0.2021317
7	0x3ea8bd07	0.32956716
8	0x3da7b8ed	0.08189569
9	0x3e00b3d1	0.12568595
10	0x3e2eb41a	0.17060891
11	0x3ee3de4a	0.4450553
12	0x3c6f8373	0.014618742
13	0x3da65aa2	0.081227556
14	0x3dbfe612	0.09370054
15	0x3daca5e2	0.08430077
16	0xbe39bc30	-0.18138194
17	0xbeafb7b0	-0.3431983
18	0x3db6e6f0	0.089307666
19	0x3d8dd817	0.069259815
20	0x3e61dd08	0.22056973
21	0x3de61b8c	0.11235723
22	0x3e3c1255	0.18366368
23	0x3d103282	0.035204418
24	0xbc1d7f9c	-0.009612944
25	0x3d926dc6	0.07149844
26	0xbdbe3e55	-0.09289233
27	0x3eab953c	0.33512294
28	0x3e61812f	0.22021936
29	0x3e28665c	0.16445297
30	0x3dfe1956	0.12407176
31	0xbcb823a6	-0.022477936
32	0x3e9b75d9	0.30363348
33	0x3e4637ed	0.19357271
34	0x3da41854	0.08012453
35	0x3e01f137	0.12689672
36	0x3e1c951c	0.15291256
37	0x3dee227d	0.11627672
38	0x3e5dbd67	0.21654283
39	0xbc9c6695	-0.019091884
40	0xbe588361	-0.21143867
41	0x3f055714	0.52085996
42	0x3da48f4b	0.080351435
43	0x3e51e64f	0.20498012
44	0x3ec540a6	0.38525885
45	0x3da443af	0.08020722
46	0x3ea15ab2	0.31514508
47	0x3e75d581	0.24007227
48	0x3d3228d3	0.043495964
49	0x3e083b53	0.1330388
50	0xbe8ab4b2	-0.27090985
51	0x3e4620c0	0.1934843
52	0x3e4289c3	0.18997864
53	0x3d8e8dcf	0.069606416
54	0x3ef6e66c	0.48222673
55	0x3e038317	0.12842976
56	0x3e1acd5e	0.15117404
57	0x3e1934cb	0.14961545
58	0xbeaaeaad	-0.33382168
59	0x3d7a0f64	0.061049834
60	0x3e89275f	0.2678785
61	0x3e21a72c	0.15786427
62	0x3e0396af	0.1285045
63	0x3ec3af58	0.38219714
64	0xbcfe801a	-0.031066943
65	0xbe69133b	-0.22761242
66	0x3dde4faf	0.10855042
67	0xbd76e004	-0.06027223
68	0x3d79f6ef	0.06102651
69	0xbe7e466d	-0.24831553
70	0x3df077d8	0.117416084
71	0xbba479ee	-0.005019418
72	0xbbc9df6a	-0.0061606662
73	0x3e6744e2	0.2258487
74	0x3e2cf9a5	0.16892107
75	0xbd6ed5bd	-0.058309305
76	0x3e3833b0	0.17988467
77	0x3e1e2977	0.15445505
78	0x3dca2558	0.09870404
79	0x3e2db328	0.16962874
80	0x3dcaa18c	0.09894094
81	0x3e6a5953	0.22885637
82	0x3d9cb5a2	0.07651831
83	0x3dce5d97	0.100764446
84	0xbdd5ab69	-0.104330845
85	0x3d574c17	0.0525628
86	0x3d67482f	0.056465324
87	0x3e02bb3a	0.12766734
88	0x3d9162ee	0.070989475
89	0x3eb0ab31	0.3450561
90	0x3e28d90b	0.16489045
91	0xbe24ec76	-0.16105828
92	0x3e4eb9de	0.2018809
93	0x3e29ca15	0.16580994
94	0x3dabab1f	0.08382248
95	0x3da394b2	0.07987346
96	0x3d0640c4	0.03277661
97	0x3e50de7a	0.20397368
98	0x3e83ba2b	0.25727972
99	0x3df4858d	0.11939535
100	0xbe790b71	-0.24320771
101	0x3e2eeac5	0.17081745
102	0x3ecf07fe	0.40435785
103	0x3e1a46b4	0.15066034
104	0x3d8b395b	0.06798049
105	0x3e179670	0.14803481
106	0xbe9e847b	-0.3096045
107	0x3e0dc205	0.13843544
108	0x3efa9ec1	0.48949245
109	0x3cbfd35f	0.02341622
110	0xbeb4ff78	-0.35351157
111	0x3e589a56	0.21152624
112	0x3e4c4450	0.19947934
113	0x3e06be00	0.13158417
114	0xbe0bf45b	-0.13667433
115	0x3dc2d7d8	0.09513825
116	0x3db55f1b	0.088560306
117	0x3d572942	0.05252958
118	0x3def95bc	0.116984814
119	0x3e68a190	0.22717881
120	0x3c0da081	0.008644224
121	0x3dca3323	0.09873035
122	0xbe8f99b4	-0.28046954
123	0xbcf3f1de	-0.029778417
124	0x3e1a40e1	0.15063812
125	0xbe158183	-0.14600186
126	0x3e461995	0.19345696
127	0x3ce0c697	0.027438445

attn.attn.weight f4 [1, 128]
0	0x3c02065d	0.007936087
1	0xbe662447	-0.22474776
2	0xbf2483fd	-0.642639
3	0x3ebe9e46	0.37230128
4	0x3f1c6791	0.6109553
5	0xbe8afcc3	-0.27145967
6	0x3e72e412	0.23719814
7	0xbbadb239	-0.005300787
8	0xbce2dd5c	-0.027693443
9	0xbf238951	-0.63881403
10	0x3e265de8	0.1624676
11	0x3e72b07e	0.23700139
12	0x3e693cfb	0.22777168
13	0xbe973623	-0.2953349
14	0xbe3dcc2e	-0.1853492
15	0xbe049903	-0.12948994
16	0xbf4da23b	-0.8032567
17	0xbdfa5277	-0.1222276
18	0x3e02a490	0.12758088
19	0xbe1a21cb	-0.15051953
20	0x3e103dbc	0.1408605
21	0x3dd2142f	0.10257756
22	0x3cdf945a	0.02729242
23	0xbe545f29	-0.20739426
24	0xbf1f061f	-0.62118715
25	0xbe040a55	-0.12894566
26	0xbefa8bd8	-0.48934817
27	0xbe444024	-0.19165093
28	0xbf5a5151	-0.8528033
29	0xbdf03a87	-0.11729913
30	0x3d606b44	0.054789796
31	0xbe7e33ac	-0.24824399
32	0xbe9a428d	-0.301289
33	0x3e7af1d8	0.24506319
34	0xbe275b80	-0.16343498
35	0x3ef14604	0.4712373
36	0x3e7b8baa	0.24564996
37	0x3d5b9598	0.05360946
38	0x3e05df07	0.1307336
39	0xbe3ead8a	-0.18620887
40	0xb9dddbb2	-0.0004231609
41	0x3f03a4da	0.5142342
42	0xbc055fb9	-0.008140498
43	0x3eaf5f70	0.342525
44	0x3e9364d9	0.28787878
45	0xbe8ff89f	-0.2811937
46	0x3d0b0664	0.03394164
47	0xbe7d411a	-0.24731866
48	0xbf122d79	-0.57100636
49	0xbefde6ac	-0.4959005
50	0x3dc240dd	0.09485028
51	0xbdcd7415	-0.100319065
52	0xbea57c50	-0.32321405
53	0xbe794d39	-0.24345864
54	0x3e9f76c1	0.3114529
55	0x3e3d54ca	0.18489376
56	0xbdc42ce6	-0.09578876
57	0x3f1156e4	0.5677321
58	0xbd811c34	-0.063042074
59	0xbdf125d3	-0.117747925
60	0x3f2f0274	0.6836312
61	0x3d902101	0.07037545
62	0xbe123537	-0.14278112
63	0x3ecc02f2	0.39845997
64	0xbd7a6054	-0.061127022
65	0xbde72bff	-0.112876885
66	0xbf3d2883	-0.7388994
67	0xbc5443b8	-0.0129555985
68	0xbe24c220	-0.16089678
69	0xbc42be0e	-0.011886133
70	0xbe17cdcf	-0.14824603
71	0xbe5b703d	-0.21429534
72	0xbe4c4fd6	-0.1995233
73	0x3ef67e2b	0.48143134
74	0x3eebc9ba	0.46052343
75	0x3e83fbfa	0.2577818
76	0x3cc85213	0.024453199
77	0x3d81684d	0.06318722
78	0x3e108525	0.1411329
79	0x3f06a3f7	0.5259394
80	0xbe104ae3	-0.14091067
81	0x3e015a65	0.12632139
82	0x3cfeaf64	0.031089492
83	0xbece7ff5	-0.40331998
84	0xbefd7428	-0.49502683
85	0xbde46006	-0.111511275
86	0xbde38839	-0.11109967
87	0xbe02a7b4	-0.12759286
88	0xbebc029d	-0.36720744
89	0x3eb7d3c5	0.35903755
90	0x3cef5dd2	0.029219542
91	0xbe9c6ed6	-0.3055331
92	0x3e14ae25	0.14519556
93	0x3f146cae	0.5797833
94	0x3e892b0d	0.26790658
95	0xbe83be93	-0.25731334
96	0xbc682de0	-0.014171094
97	0xba969d3f	-0.0011490955
98	0xbef24c72	-0.47323948
99	0xbeb48b3d	-0.3526248
100	0x3e2fae87	0.1715642
101	0xbdfc0c10	-0.12306988
102	0x3ec256e1	0.37956908
103	0xbd738382	-0.059451587
104	0xbe112686	-0.14174852
105	0xbdf0b4df	-0.117532484
106	0x3db61be7	0.08892041
107	0x3cbcca14	0.023045577
108	0x3ea9304f	0.3304467
109	0xbcfe6ae0	-0.031056821
110	0xbe5badec	-0.21453065
111	0xbe126654	-0.14296848
112	0xbc8a1ae4	-0.016858526
113	0xbd5a84b8	-0.053349227
114	0xbe91f1e5	-0.28504863
115	0xbd6f6082	-0.058441646
116	0xbe0b3f3a	-0.13598338
117	0xbd1dc6cb	-0.038519662
118	0xbe21b362	-0.15791085
119	0xbd0162ef	-0.03158849
120	0xbea51c7b	-0.3224829
121	0xbdec02b9	-0.11523957
122	0xbda1833a	-0.078863576
123	0xbea380da	-0.31934243
124	0xbdfdc9fe	-0.123920426
125	0xbf463509	-0.77424675
126	0xbe5223d4	-0.2052148
127	0x3e847b1c	0.25875175

fc.weight f4 [6, 128]
0	0xbe8ab089	-0.2708781
1	0xbece84a7	-0.4033558
2	0xbeffaa37	-0.4993455
3	0x3e6998f2	0.2281225
4	0x3e04fe9a	0.12987748
5	0xbf85df36	-1.0458744
6	0xbe9ac924	-0.30231583
7	0x3e076ff0	0.13226295
8	0xbf85c2ec	-1.045011
9	0x3d98f959	0.07469434
10	0x3f6e829f	0.9316806
11	0x3e33dabc	0.1756391
12	0x3e69e19e	0.22839972
13	0x3b1c0463	0.0023806326
14	0x3d929c7b	0.071587525
15	0xbc426b6f	-0.0118664345
16	0xbf087cac	-0.53315234
17	0x3df19e3e	0.117977604
18	0xbf61e090	-0.8823328
19	0x3e17a3f4	0.14808637
20	0x3c185942	0.0092986245
21	0x3d01ce7f	0.03169107
22	0x3f1e3618	0.6180129
23	0xbf6d92d1	-0.9280215
24	0xbf475b82	-0.77874005
25	0xbf593e56	-0.8486074
26	0xbedeb057	-0.43493912
27	0x3e4dbd25	0.20091684
28	0xbeb6f54b	-0.3573402
29	0xbf64fb12	-0.894456
30	0x3daa9dd5	0.08330885
31	0xbf57cbee	-0.84295547
32	0x3ed9b214	0.42518675
33	0xbc218caa	-0.009860197
34	0xbf81247c	-1.0089259
35	0xbda3cab0	-0.07997644
36	0x3d9c6f27	0.07638388
37	0x3f3abf46	0.7294811
38	0x3ef9e15f	0.48804757
39	0xbf84b3b4	-1.0367341
40	0x3dd6796c	0.10472378
41	0x3e2e6ff1	0.1703489
42	0xbf6e257a	-0.93025935
43	0xbf81f461	-1.0152704
44	0xbf9072c2	-1.1285021
45	0x3e00e4dd	0.12587304
46	0xbf1aec59	-0.6051689
47	0x3efd67fe	0.49493402
48	0xbf730c4f	-0.94940656
49	0xbf93d9c5	-1.1550833
50	0x3e0a4cc1	0.13505842
51	0xbf102af8	-0.56315565
52	0xbf9004e7	-1.1251496
53	0x3d91813e	0.07104729
54	0x3e918793	0.28423747
55	0xbd473526	-0.04863467
56	0x3ddb0238	0.106937826
57	0x3e0c2c58	0.13688791
58	0x3e4ddb2c	0.20103139
59	0xbf25c915	-0.6475995
60	0x3d6e7e9a	0.058226205
61	0xbcc09e15	-0.02351288
62	0xbf5f9d76	-0.8734964
63	0x3e1a2f85	0.1505719
64	0x3e3b4ab3	0.18290214
65	0x3ea70197	0.326184
66	0xbf4ba8bb	-0.7955434
67	0xbf8798f1	-1.0593549
68	0xbf125e14	-0.571748
69	0x3e21ac8f	0.15788482
70	0xbe16a0f4	-0.14709836
71	0x3e973fca	0.29540855
72	0x3d21f61d	0.039541353
73	0x3d55373c	0.05205463
74	0x3dc515d2	0.096233025
75	0x3ddcc5f7	0.10779946
76	0x3e5e6c27	0.21720944
77	0xbf8733e6	-1.0562713
78	0xbf79b140	-0.9753609
79	0x3da9f09e	0.08297847
80	0x3d5b4100	0.053528786
81	0xbed4a364	-0.41530907
82	0xbfab2c31	-1.3372861
83	0x3e04d0ce	0.12970278
84	0x3eb6edd0	0.35728312
85	0xbf603ae5	-0.87589866
86	0xbf35e584	-0.7105334
87	0xbf79acc5	-0.9752925
88	0xbf6df4c4	-0.9295161
89	0xbfb76b4f	-1.4329623
90	0xbd91cccd	-0.07119141
91	0xbf3c77b8	-0.73620176
92	0xbf3de5e6	-0.7417892
93	0x3d8ba4ea	0.06818564
94	0xbe0a2c14	-0.13493377
95	0xbf7695f4	-0.9632256
96	0xbf8dd303	-1.1080021
97	0xbe8d8023	-0.27636823
98	0x3e4ef498	0.20210493
99	0x3dcbc6c0	0.09950018
100	0x3def4bd0	0.11684382
101	0x3e802160	0.25025463
102	0xbf437138	-0.76344633
103	0x3ddbd204	0.10733417
104	0xbda3d00a	-0.07998665
105	0xbf182440	-0.59430313
106	0x3ddde7ab	0.10835203
107	0x3dc59533	0.09647598
108	0x3e34d909	0.17660917
109	0x3d99728c	0.07492551
110	0x3de37261	0.111058004
111	0xbef2d613	-0.4742895
112	0x3e9e9c62	0.30978686
113	0xbf6a0250	-0.9140978
114	0x3e59b1c2	0.21259215
115	0xbf1f3d7b	-0.62203187
116	0xbe1ff2d0	-0.1561997
117	0xbf2b7d33	-0.66987914
118	0xbf7043d0	-0.93853474
119	0x3df90945	0.12159971
120	0xbf4ee443	-0.8081705
121	0xbf652dcb	-0.89523
122	0x3e256b6f	0.16154264
123	0x3f13cf6b	0.5773837
124	0xbeee4bd4	-0.46542227
125	0xbce69f41	-0.02815211
126	0x3e2db27a	0.16962615
127	0x3e196475	0.14979728
128	0xbf2de277	-0.6792368
129	0x3e190987	0.1494504
130	0x3d7ae53e	0.06125378
131	0xbf74b91e	-0.95594966
132	0x3da9f54d	0.082987405
133	0xbf04fcf5	-0.5194848
134	0x3e3b1fd8	0.18273866
135	0xbf731458	-0.9495292
136	0x3dbd92e8	0.09256536
137	0xbbcdb8eb	-0.0062781475
138	0xbef756da	-0.4830845
139	0xbf70c3a1	-0.94048506
140	0xbf2f5b48	-0.6849866
141	0xbe6427be	-0.22280785
142	0x3c524b60	0.012835354
143	0xbe28085f	-0.16409443
144	0xbd3cf149	-0.046128545
145	0xbc8a5268	-0.016884997
146	0x3db6d1c4	0.08926728
147	0x3c8c1329	0.01709898
148	0xbf32117f	-0.69557947
149	0x3d34223c	0.04397796
150	0xbf27025c	-0.65237975
151	0x3dc0fbef	0.094230525
152	0x3cb33633	0.02187643
153	0x3e99cd45	0.3003942
154	0x3cb09304	0.021554478
155	0xbed7bf6d	-0.42138234
156	0x3db79272	0.08963479
157	0x3da7e9ea	0.081989124
158	0x3d50ac69	0.050945673
159	0x3da4a492	0.08039202
160	0xbf956227	-1.1670579
161	0xbccfe0b5	-0.025375703
162	0x3ecc050b	0.39847597
163	0x3a41b7c7	0.00073897507
164	0x3ce40b7f	0.027837513
165	0xbdaf2571	-0.08552063
166	0xbf777fe0	-0.96679497
167	0x3dc039ce	0.09386025
168	0x3d48aba2	0.048991807
169	0xbf0ddd1c	-0.5541551
170	0x3e174e17	0.14775883
171	0x3da941e9	0.082645245
172	0xbedc659d	-0.43046275
173	0x3e851f4d	0.26000443
174	0x3e12a9d1	0.14322592
175	0xbe223c4d	-0.15843315
176	0x3cdc7745	0.02691234
177	0x3e8e8381	0.27834705
178	0xbb6fd9aa	-0.0036598244
179	0xbf349cc3	-0.705517
180	0x3cc0cb46	0.023534428
181	0xbebf0af0	-0.37313032
182	0xbf7ed13c	-0.99538016
183	0x3c08a10f	0.008339181
184	0x3da3e812	0.08003248
185	0x3c1bbf04	0.009505991
186	0x3d3f8db3	0.046765994
187	0x3ddedeb5	0.10882322
188	0x3cc6162a	0.02418049
189	0x3d24bad6	0.040217243
190	0x3dcb3bfe	0.09923552
191	0xbe98eb4d	-0.2986702
192	0x3d90471d	0.07044814
193	0xbd0b0bf2	-0.03394694
194	0x3e86b995	0.26313463
195	0xbf3dd916	-0.7415937
196	0x3dad1933	0.08452072
197	0xbd9148cf	-0.07093965
198	0x3e9a8c96	0.30185384
199	0x3df47180	0.11935711
200	0x3e0e62ec	0.13904923
201	0xbcb81182	-0.022469286
202	0x3d555551	0.052083317
203	0x3c9dde1a	0.019270945
204	0xbf6719d5	-0.9027379
205	0x3d7b0e00	0.06129265
206	0x3ec7c3c7	0.39016554
207	0x3d35a243	0.044344198
208	0x3db245b1	0.08704699
209	0xbf6d8e3f	-0.92795175
210	0x3d9d3b2e	0.07677303
211	0xbd2402c3	-0.040041696
212	0x3d1ad1e0	0.03779781
213	0xbeae5618	-0.3405006
214	0x3dff4463	0.124642156
215	0x3d805693	0.06266513
216	0x3d2351ed	0.039873052
217	0xbe44eb01	-0.19230272
218	0x3ea6360b	0.32463107
219	0x3ddfeeff	0.10934257
220	0x3e1164a8	0.14198554
221	0x3d58aaea	0.05289737
222	0xbdac8401	-0.08423615
223	0x3dc3ce05	0.095607795
224	0xbf111abc	-0.5668142
225	0x3e896f00	0.268425
226	0xbeb34c97	-0.3501937
227	0x3df95340	0.12174082
228	0x3d6d9725	0.05800547
229	0x3c39c579	0.011338585
230	0xbe89c294	-0.26906264
231	0x3e59aa76	0.21256432
232	0xbecb478a	-0.39703017
233	0x3e12a167	0.14319383
234	0xbd5da62c	-0.054113552
235	0xbd800660	-0.06251216
236	0xbf37716d	-0.7165745
237	0x3daa0ea6	0.08303575
238	0x3d42b7a5	0.04753842
239	0xbf818a6e	-1.012037
240	0xbddec90e	-0.10878192
241	0x3ec3baca	0.38228446
242	0x3e814611	0.2524877
243	0x3cdfaa04	0.02730275
244	0xbeb6319b	-0.3558472
245	0x3dcc0432	0.09961738
246	0x3db2feb9	0.08739991
247	0xbcbad0d8	-0.022804663
248	0xbdfbb961	-0.122912176
249	0x3db97dab	0.090571724
250	0x3d93a01f	0.07208275
251	0x3db16678	0.086621225
252	0x3ec4e242	0.3845387
253	0x3d5a01ef	0.0532245
254	0xbdb431c8	-0.087985575
255	0x3d94b080	0.07260227

fc.bias f4 [6]
0	0x3f1fa954	0.6236775
1	0xbeb4beb4	-0.35301745
2	0x3e4ae668	0.19814456
3	0xbde38770	-0.11109817
4	0x3c82683d	0.015918845
5	0x3f22fd7a	0.63668025
